best_model_FCNN.pt (torch, 214928 bytes, 16 tensors)

conv1.weight f4 [5, 1, 3, 3]
00000000: 6753 863e 68b5 72be 93d6 f4be 7f8d 093e
00000010: d9f0 a13d 6c0a 9ebe 8f9d a23e 133b 253e
00000020: 85c6 953d 1a12 263d 120f f83d 515a 473e
00000030: 2eb5 eabe dbd1 99be 6909 41bd 77fc d5bc
00000040: 7e36 b7be c728 a83e cefe 143e fd83 423e
00000050: 2c57 dabe f57a cd3e df0f 8f3e ccde 66be
00000060: 0479 51bd 28ed f3bd b544 35be 1cb8 563d
00000070: 2b7a acbe 478a 4cbe c918 dd3e 5b06 28be
00000080: b269 b4be 3fd1 943e 0e89 7d3e 9c30 663c
00000090: c334 c13b e10d 1f3b ebee b63d 7c11 d9bd
000000a0: a391 79be a316 433d 5a61 a93d 7f09 29be
000000b0: f28b 3dbc
0.26235506 -0.23702013 -0.47819957 0.13432883 0.07907266 -0.30867326 0.31760833 0.16135816
0.07313255 0.040544607 0.121122494 0.19468047 -0.45841354 -0.3004292 -0.047128115 -0.026121361
-0.35783762 0.3284361 0.14550325 0.18995662 -0.42644632 0.4013287 0.27941796 -0.22545928
-0.0511408 -0.11910468 -0.17701991 0.052421674 -0.33686957 -0.19974624 0.43182972 -0.16408674
-0.3523689 0.29065892 0.24759313 0.014049675 0.0058961823 0.0024269747 0.08932289 -0.10599038
-0.24371962 0.04762901 0.082705215 -0.16507529 -0.01156901

conv1.bias f4 [5]
00000000: c8b7 973e 50b9 183f 37cf 6d3e 3cd5 983e
00000010: d0b0 b23f
0.296324 0.59657764 0.23223577 0.29850185 1.3960209

conv2.weight f4 [10, 5, 3, 3]
00000000: 2d5c 083c 894e ebbe 0cb4 02bd 441b 9a3d
00000010: abff a8be 88d0 6ebe 19d4 2b3e 3872 a2be
00000020: 9be8 b8be 143c 2f3e 1e26 a83d bc34 99be
00000030: ff5c e03d dac7 d63c f957 52be 7616 c03d
00000040: 970b 9d3d 9e1b 3dbe ba75 e83d eabb 78be
00000050: 3e44 d1bc bc35 5bbd 3616 16be ada9 95bd
00000060: dbe5 ff3c 4a45 5dbe 2223 13be e282 73ba
00000070: de16 e7be c255 32bd 58d2 d93d 5504 95be
00000080: ac45 80be a5e2 133e 6255 63be 45aa d6be
00000090: b99e 4b3e cb91 1f3e e92c 97be a69b 583e
000000a0: 668b b53c 3e25 93be bd8c 823e 385d 3bbc
000000b0: 85e8 75be 56b1 dabc aa06 f3bd b5cd e0bd
000000c0: 0007 dabc 3704 193c d3f5 8bbd f7e2 973d
000000d0: 3875 093d c776 9bbc 5482 693e 9ce0 693e
000000e0: 52fc 803e 1fda 033e ea0a 8e3e 978d 503e
000000f0: 7dba f43c 14f9 263e c9bc 333e 1f8a b3bd
00000100: b7f3 a3be 424d 193e c056 be3c 347b b9be
00000110: 5ca7 30bf 20fb 0e3e 709d 9dbe 9805 c1be
00000120: c308 3bbd 289e c7bd 8db6 83bd 2f3e c8bd
00000130: 67a1 503d f95f 1abd a0c9 ee3d 4d54 5a3c
00000140: d62e b93d 9555 453e 4bfb 893e 3d1e 5a3e
00000150: f3b3 383e 6ac3 653e 2972 a13d 25b7 773c
00000160: 5057 d03d 83b5 683d 2126 c0be 61e4 77be
00000170: 7ae0 86bb 01bd 2fbd 7ef4 35be 3e6d 6fbe
00000180: 6b47 473e 2d1f 613e 5d5c 3b3e 71da cbbd
00000190: de76 88be 26fb 85be d24f 073e f5b9 713e
000001a0: 4bed 6b3e 6533 54bd 583c 213c 1bc9 cb3d
000001b0: 6a82 a7bd 5110 1c3c 5ee1 113d b101 083d
000001c0: 58e3 883d 8eb8 9b3d 2d08 983d d82f cfbd
000001d0: 4d12 5abe 9c6e 90be 85af 88be 9a90 62bc
000001e0: 9e05 c9bc fdb4 f1bd 430b 9fbe ed96 1a3e
000001f0: 73e6 453e 3521 773e 664b d8bd f147 93be
00000200: 6823 85be 399a 3e3e 93f0 633e 4c13 583e
00000210: 9e85 9dbd 4dd3 203d d00d e83d bf3f 18be
00000220: 9ed4 39be 2172 42be 3b6f 6d3e fa28 893e
00000230: 8731 943e 014a a7bd 8cd4 95bd 82bb abbd
00000240: 8947 463e 4834 5e3e 149e 203e 90d7 013e
00000250: 33c6 4c3e 5ded 423e 6f8b 46be e843 dcbe
00000260: e61e d6be 8564 123e 4e66 5f3d 31d6 cf3d
00000270: abb0 27be 1093 a7be 2824 c7be 5de0 debd
00000280: aa3a 133e 6a74 723e cc5f 01be 7f5b 38be
00000290: d2f2 2bbe 7324 f43d 6057 8c3e df02 ab3e
000002a0: ce32 b93a 5f76 13bd e634 f6bd 6dc0 803e
000002b0: 299a 903e 7c60 693e ab2e fb3d 23f8 c53d
000002c0: 2652 643d 2296 83be 123a d1be 9d88 a4be
000002d0: b157 143e 560e bb3e e05f 0f3e a40d 453e
000002e0: 4f50 a4bd 52ab 37bd c87d c8be daf9 a4be
000002f0: e200 2dbe d7eb b63c 4961 d53c 041f e43c
00000300: e5b5 82be 831a b1be 93ae 80bd ce11 113d
00000310: a755 dd3d bea1 803e 8764 eabb 2d90 96bd
00000320: a636 41be 99f5 62bd 213d 78bd dca3 1a3e
00000330: 0878 133e b2b6 493e 7837 8f3e ff69 213e
00000340: 6f4a 803e 094a 6b3e e904 253d 8f49 de3c
00000350: 9935 cbbd 0171 aabe 983e 8fbe dabb 59be
00000360: 6a89 0d3e 31c7 acbc ade5 ac3d 7d98 d0be
00000370: 640c e2be 5226 4cbd 35d3 cb3c 6f4a 743e
00000380: 8c9c b43e 303c a03d fef5 ad3d 38eb 4abe
00000390: 02f0 39be 4b0f 963e b771 bebd 2e68 85bd
000003a0: 5d02 1abe a920 493e 96dc c7bd 80bd 5a3e
000003b0: 1b76 1f3e 5607 16bd 22bb 01bf 84fb 9b3e
000003c0: a99a 4d3e 6767 b5bd 4b38 f0bd ef8b 0b3d
000003d0: 775d 24be 31d6 56bd 1415 563d 84fc 8b3e
000003e0: 8359 b0be 673d 58be 113b fc3d 2537 c63d
000003f0: 807b 68bc 50b6 2e3e 69aa 68be 3028 31be
0.008322758 -0.45958355 -0.031909987 0.07524732 -0.3300756 -0.23321736 0.16780128 -0.31727767
-0.36114964 0.17112762 0.08210395 -0.29923046 0.109552376 0.026218344 -0.20541371 0.09379284
0.07668226 -0.18467566 0.113505796 -0.24290434 -0.025545236 -0.053518042 -0.1465691 -0.07307754
0.031237533 -0.21608463 -0.14368871 -0.00092892174 -0.45134634 -0.043538816 0.10635823 -0.29104868
-0.25053155 0.14441927 -0.2220054 -0.4192678 0.19884767 0.1558296 -0.2952645 0.21153125
0.022161197 -0.2873935 0.25498 -0.011435799 -0.2401448 -0.026695888 -0.118665054 -0.109767355
-0.026614666 0.009339384 -0.068339966 0.07416337 0.033559054 -0.018977536 0.22803622 0.22839588
0.25192505 0.12876175 0.27742702 0.20366512 0.02987408 0.16305953 0.17552485 -0.08766579
-0.32021877 0.14970878 0.023234725 -0.3622681 -0.6900537 0.13962984 -0.30784178 -0.3769958
-0.045662653 -0.09746963 -0.06431303 -0.097774856 0.050935175 -0.037689183 0.11659551 0.013325763
0.09042136 0.19270928 0.26949534 0.21300597 0.18037395 0.22437826 0.078831024 0.015119349
0.101729035 0.056813728 -0.3752909 -0.24208213 -0.004116115 -0.042904858 -0.17769048 -0.23381516
0.19460838 0.21984549 0.18296953 -0.09953774 -0.26653188 -0.26168174 0.13214043 0.23606093
0.23039739 -0.051806826 0.009841047 0.09950467 -0.081791714 0.0095253745 0.035615318 0.033204738
0.066839874 0.076035604 0.074234344 -0.10116547 -0.21296044 -0.28209388 -0.2669641 -0.013828421
-0.024538811 -0.11802099 -0.3106328 0.15096636 0.1932619 0.24133761 -0.10561256 -0.28765824
-0.26003575 0.18613519 0.2225974 0.21101111 -0.07691501 0.039264012 0.113307595 -0.14868067
-0.18147513 -0.18988849 0.23186962 0.26789075 0.28944036 -0.08168412 -0.07315931 -0.08385374
0.19363226 0.21699631 0.15685302 0.12679887 0.19997482 0.1903586 -0.19389127 -0.43020558
-0.4182045 0.14296158 0.054540925 0.10148276 -0.16375987 -0.32729387 -0.38894773 -0.10882638
0.14377847 0.23677221 -0.126342 -0.18003653 -0.16791847 0.11921015 0.27410412 0.33400628
0.0014129521 -0.03600156 -0.12021808 0.2514681 0.28242615 0.22790712 0.122647606 0.09666469
0.055742405 -0.2570048 -0.40864617 -0.32135478 0.14486577 0.36534375 0.14001417 0.19243485
-0.0802313 -0.04484112 -0.39158463 -0.32221872 -0.16894868 0.022329254 0.026047366 0.02784682
-0.255294 -0.3459054 -0.062832974 0.03541737 0.108073525 0.251234 -0.007153097 -0.07351718
-0.18868503 -0.05541 -0.060605172 0.1510157 0.14401257 0.19698599 0.27972007 0.1576309
0.25056788 0.22977461 0.040287886 0.027134685 -0.09922332 -0.3328934 -0.27977443 -0.21263066
0.1382195 -0.021091076 0.08442245 -0.4074134 -0.44150078 -0.049841233 0.024880985 0.23856519
0.35275686 0.0782398 0.08494185 -0.19816291 -0.18157962 0.29308543 -0.09299033 -0.06514011
-0.15039964 0.19641365 -0.0975887 0.21361351 0.15572397 -0.03662809 -0.50676167 0.3046533
0.2007853 -0.08857613 -0.11729487 0.034068998 -0.16051279 -0.052450363 0.052266195 0.27341092
-0.34443292 -0.21117173 0.123159535 0.09678487 -0.014189601 0.17061734 -0.22721256 -0.17300487

conv2.bias f4 [10]
00000000: 401a 2b3d 4d71 2ebe 4099 8d3e 5ea8 46be
00000010: b670 f73d 37de eb3e 5d4e b7bd 482c dc3d
00000020: 60b6 2abc b5f4 f03c
0.04177308 -0.17035408 0.27655983 -0.19400164 0.12082045 0.46067974 -0.089504935 0.107506335
-0.010419458 0.02941356

bn1.weight f4 [5]
00000000: 4751 523f 16b5 833f 1469 4f3f 4093 533f
00000010: 0196 c13f
0.8215527 1.0289638 0.8101971 0.8264656 1.5123903

bn1.bias f4 [5]
00000000: 1911 8b3d 2d0c 12bf a6f0 bf3d 386f 823d
00000010: f746 42bf
0.067903705 -0.5704983 0.09372072 0.063688695 -0.75889534

bn1.running_mean f4 [5]
00000000: 266f cb3e 3cea 4b3f c8c6 a03e f891 c23e
00000010: 920d b23f
0.39733237 0.7965429 0.31401658 0.3800199 1.3910391

bn1.running_var f4 [5]
00000000: ca81 443e 9d68 a93e 9dd5 1f3e 88c8 3d3e
00000010: 0f76 6b3e
0.19190136 0.33087626 0.15608831 0.18533528 0.22994255

bn2.weight f4 [10]
00000000: 1541 bd3f c523 ab3f b3d3 c53f a529 c13f
00000010: d741 8c3f 84b0 e13f 1659 ba3f 91d5 c83f
00000020: 3d56 d13f 5a75 bc3f
1.4785486 1.3370291 1.545523 1.5090834 1.0957593 1.7631993 1.4558437 1.5690175
1.6354443 1.4723313

bn2.bias f4 [10]
00000000: b9cf 6fbe 01eb 94be ca68 96be bb86 00be
00000010: 7e65 e43d 0723 07be 7de5 72be 7c62 88be
00000020: 0264 c0be b02a 7bbe
-0.23419084 -0.29085544 -0.29376823 -0.12551396 0.111521706 -0.13196956 -0.23720355 -0.26637638
-0.375763 -0.24528003

bn2.running_mean f4 [10]
00000000: 1edf cbbf 16cc 1ac0 08fd 35be fb14 aebe
00000010: 120a 803e ce45 983e 1ac4 dfbe 2832 87be
00000020: f415 80bf b104 82bf
-1.5927465 -2.4187064 -0.17772305 -0.34000382 0.25007683 0.29740757 -0.437043 -0.26405454
-1.00067 -1.0157682

bn2.running_var f4 [10]
00000000: 2cdc 8f41 ed21 d041 2c98 a240 c1ef a240
00000010: 524b 9a40 08da 5140 77f3 e140 39f5 af40
00000020: 1786 5041 f5c5 c740
17.982506 26.016565 5.0810757 5.091767 4.8216944 3.2789326 7.06097 5.4986844
13.032737 6.2429147

l1.weight f4 [128, 360]
00000000: f2f0 29bd ea84 813c 0d3f 6c3c a32c bfbd
00000010: 469c 993c 0303 003d f973 0fbe b503 01be
00000020: e8da 1ebd 6abf 8fbd b8a0 1d3d fe67 08bd
00000030: 2027 89bd 6d60 a4bd d85f d1bd 30f2 d8bc
00000040: 2e4e 0bbe 3af2 b0bd b5d3 f4bd 340e 55bd
00000050: 1c03 8cbd bdb1 f6bd 9b63 f13c acde 21bd
00000060: 784d 6bbd 6808 61bd c1e3 94bc 78dc 88bd
00000070: d5a0 8fbc e178 cebd 31d5 90bd d4e1 94bc
00000080: ed7a b0bd fdb6 a83b b1c5 e1bd f9ab 0f3b
00000090: 2cd4 da3a 93c4 08be 6c58 63bd f176 353d
000000a0: 2bf7 19bd 355e 4bbd 6e39 1a3d 1fc3 e1ba
000000b0: d45c 26bd c54d 6f3c 059d 14be 497a 99bd
000000c0: f468 1cbe a952 9bbd c287 2bbe a39e 00bd
000000d0: 596b 88bd 1399 09be ad26 c0bd eb97 bbbd
000000e0: 9b91 0cbe c5f6 9abd 1c19 16be e863 2ebe
000000f0: 6477 07be 2e70 9fbd 5622 00be 516f a9bd
00000100: 70ee cdbd e268 25be 3e55 d1bd c666 0d3d
00000110: e033 bcbd 7730 4abd d1ef 723d fb5f 1fbe
00000120: 3ef6 14be 007f ffbd c042 113d 932c 74bc
00000130: b93f 6ebd 5f4c 813b 9fd1 8dbd 8b4d 7b3d
00000140: 5dda 073d 2066 0dbe 5771 4cbd cb32 cbbd
00000150: f418 90bd 7495 bfbd e65b 183d fff1 76bd
00000160: 0c70 92bd de6f 17be d463 043c 7acb 6dbc
00000170: 25ce 633a a492 03be f284 a7bd a310 87bd
00000180: 7046 81bb 341e 0fbe 2c5f 453c da20 863d
00000190: 7d80 dcbd 14cf 313c 1994 073d 7a14 1bbd
000001a0: 06cc 0abe 5e44 8a3d e7e6 4dbd b2d5 1ebe
000001b0: e822 203d 5be7 883d 89d4 09be 1ac4 3fbd
000001c0: ab53 0bbe c3c6 58bd 5234 97bd fd00 6dbd
000001d0: 3396 f4bd 724a 423d a395 003c 127e ecbd
000001e0: 7068 afbd 48f1 49bd ee9d cfbc 6585 e4bd
000001f0: 24e7 493c 8dcd 11bc 22e3 97bd 9abf 413d
00000200: 8a91 233d b2e6 38bc bbf6 80bd 31af abbd
00000210: f671 31bd be21 6abd 065a 93ba 7111 823c
00000220: fcef b3bd 5e8f a2bd 2be7 bcbc d8ba 2d3d
00000230: 86cc fdbd a461 1cbe af73 71bd 8a70 1bbe
00000240: c8e9 04be b33f bbbd 81d0 013d f088 9abc
00000250: 14dc a13c 2368 1bbd e623 c4bc 48a1 ecbd
00000260: 92c4 733d a857 a93c 0caf 503d e132 09be
00000270: 1385 12bd 2662 e7bc 88e3 07be be83 4cbd
00000280: 778d 11be ceae 8dbc d143 593d 08c2 abbd
00000290: 82f9 3b3a 98d3 e13c a608 0cbe e1c2 76bd
000002a0: 6743 6ebd 6ebc d7bd 0d47 143d 5d67 3d3d
000002b0: c42e f2bd 9d84 f4bc 9a20 96bd 5cfd 1cbe
000002c0: 6902 33be 9942 653c 9268 0d3c 9e27 b6bd
000002d0: db0c 773d 74cb 40ba 31e8 f9bd 12a4 75bd
000002e0: f541 1abd e862 01be dac3 c83a 454c f0bd
000002f0: 5c32 53bd c94f 74bd b0ba 803d 89df f73b
00000300: 37b9 ebbd b827 9fbc ab82 19be b454 f4bd
00000310: 609c 9fbd 038f 833d f76d 03be 1846 8fbd
00000320: 6c4f fbbc df68 c03b 1438 dcbd 3447 51bd
00000330: 1f38 13be 67ca aabd fc14 e9bd dfb6 e7bd
00000340: c3a1 e73c c3be a0bd d7f6 69bd c994 62bd
00000350: 9627 873c 1d2a fdbd f5c6 89bd 1e94 123d
00000360: 6711 1e3d d775 05be 208e 49bc 912c 2cbe
00000370: 3955 10be 7b3b eebc e674 57bc b576 a3bc
00000380: 9efe 2cbd 3d2d 203c 23ab 97bd 82e2 b3bd
00000390: 54c9 debc bee2 9bbd dc82 f1bd a5fb ba3c
000003a0: a659 f43c 5635 c03a 936b 05be 15d7 173d
000003b0: 4b77 f83c c0a8 fbbc ecd9 b4bb 6afc 13be
000003c0: 6a95 523d 5de7 05be cac2 35bd 2240 06be
000003d0: 7db6 b4bd ac5f 09be c01a 33bd 6927 1dbe
000003e0: 19e8 973c 97b4 94bd 816a 28be 5552 dabc
000003f0: 6f18 af3b 2389 92bd 9d8a dbbd 26b0 e3bd
-0.04148955 0.015810449 0.014419329 -0.09334686 0.018751275 0.031252872 -0.14009084 -0.1259907
-0.038782984 -0.07018931 0.03848335 -0.0333023 -0.066969156 -0.08026204 -0.10223359 -0.026482671
-0.13604042 -0.08639951 -0.119544424 -0.0520155 -0.068365306 -0.1204562 0.02946644 -0.039518997
-0.057446927 -0.054939657 -0.018175008 -0.06682676 -0.017532745 -0.100816496 -0.07071913 -0.01817409
-0.08617196 0.005148767 -0.11024035 0.0021922572 0.0016695312 -0.13356237 -0.055504248 0.044302884
-0.037589233 -0.04965039 0.037652425 -0.0017224288 -0.04061587 0.014605944 -0.14513023 -0.07494027
-0.15274411 -0.075841255 -0.16751006 -0.031401288 -0.066611 -0.134373 -0.09382377 -0.091598354
-0.13727419 -0.07566599 -0.14658016 -0.17030299 -0.13229138 -0.077850685 -0.12513098 -0.08273185
-0.10055244 -0.16153291 -0.10221337 0.03452184 -0.09189582 -0.049362626 0.059310738 -0.15563957
-0.14547059 -0.12475395 0.03546405 -0.014903205 -0.05816624 0.0039458717 -0.06924748 0.061353248
0.03316723 -0.13808489 -0.049912777 -0.09921797 -0.070360094 -0.09354678 0.037197016 -0.06028938
-0.071502775 -0.14788768 0.0080804415 -0.014513845 0.0008690081 -0.12848908 -0.08179654 -0.0659497
-0.0039451644 -0.13976365 0.0120466165 0.06549235 -0.10766695 0.010852594 0.03310022 -0.037861325
-0.13554391 0.06751321 -0.050269034 -0.15511206 0.03909579 0.066847526 -0.13459982 -0.046817876
-0.13606136 -0.05292393 -0.07383026 -0.05786227 -0.11942711 0.047434278 0.007848176 -0.115474835
-0.08564842 -0.04930237 -0.025343861 -0.111582555 0.012323175 -0.008899105 -0.07416369 0.047301866
0.03993372 -0.011285471 -0.0629706 -0.083830245 -0.043321572 -0.057161085 -0.0011242039 0.015877457
-0.08786008 -0.07937501 -0.023059448 0.042414516 -0.123925254 -0.15271622 -0.058948215 -0.15179649
-0.12979805 -0.09143009 0.031692985 -0.018864125 0.019758262 -0.03794111 -0.023942899 -0.115541995
0.059513636 0.02067168 0.050948188 -0.13398315 -0.03577144 -0.028245043 -0.1327039 -0.049930327
-0.14214121 -0.017295267 0.05304319 -0.08386618 0.00071706634 0.027566716 -0.13675174 -0.060244445
-0.05816975 -0.10533987 0.03620057 0.046241153 -0.11825326 -0.029848391 -0.07330437 -0.15331024
-0.17481388 0.013992929 0.008630889 -0.08894275 0.060314994 -0.00073545356 -0.1220249 -0.059970923
-0.037660558 -0.12635386 0.0015317157 -0.11733297 -0.0515617 -0.0596464 0.06285608 0.0075644893
-0.11509936 -0.019428119 -0.14991252 -0.11930218 -0.07793498 0.06423762 -0.12834917 -0.06995791
-0.03067752 0.0058718766 -0.107528836 -0.051093295 -0.14376877 -0.083393864 -0.113809556 -0.11314177
0.028275376 -0.07848885 -0.05712017 -0.055317674 0.016498368 -0.12361548 -0.06727401 0.035785787
0.038590815 -0.13033234 -0.012301952 -0.16813876 -0.1409501 -0.029081097 -0.013150429 -0.019954065
-0.04223501 0.009776411 -0.074056886 -0.08783437 -0.02719561 -0.07611607 -0.117925376 0.022825072
0.029827904 0.0014664333 -0.13029318 0.037070353 0.03033032 -0.030720115 -0.0055191424 -0.14451757
0.051412024 -0.1307654 -0.04437522 -0.13110402 -0.088238694 -0.13415402 -0.043726683 -0.15347065
0.01854329 -0.07261007 -0.16446878 -0.026650587 0.005343489 -0.07155063 -0.10719798 -0.11117582

l1.bias f4 [128]
00000000: 4867 0dbd 71fb 65bc 7d9c 1cbd c697 4dbd
00000010: 3d94 123d cdee 47bd a88f ad3e e32e 4bbd
00000020: 3eeb 363e a624 3ebd 87ee 813e 9328 4ebd
00000030: 6d8f f6bc 31bb c4bc dec4 063e 9e6c 11bd
00000040: 96a6 f63d 16b6 80bd 7e10 92bd a9d5 41bd
00000050: df75 69bd fc31 51bd 3390 0cbd 98a5 55bd
00000060: 3168 4fbd 95b1 86bc 84f9 25bd 40fe 4cbd
00000070: 0d01 4fbd 5764 48bd 023c 79bd 602c 21bd
00000080: 49b0 12bc f87e 8ebd 15c7 39bd 70e7 2e3e
00000090: c10b a73e 9a73 53bd 03d8 cb3e aee6 4fbd
000000a0: 102c 26bd 2373 1e3c 8c0b ebbc b409 fbbc
000000b0: 502f 08bd a786 64bd ce47 8dbd 6384 95bd
000000c0: 30fe 4cbd ed9a cf3d 2ff5 66bd 83e5 56bd
000000d0: c064 cd3e e449 43bd 7c47 ec3e fbfa 81bb
000000e0: 7352 59bd dec2 1cbd 5319 023e df59 8bbd
000000f0: 3dab afbe 839a c8bc 0012 46bc 307b 783e
00000100: b717 44bd 716a 4abd 005f 54bd ac86 89bd
00000110: bb98 4abd e858 47bd 1007 4cbd db08 78bc
00000120: aa1f 57be 682e 3bbd 4ca7 60bd f50a ea3b
00000130: 4718 9ebd 3711 94bc dacd 40bd 0929 83bd
00000140: ac2f 50bd 72a9 bd3e 757e efbc fdcc e5bc
00000150: 8565 033d 16fe 4cbd 80d6 643e dcd6 743e
00000160: 18fe 4cbd f7e2 4cbd 7bdd 44bd bc53 4bbd
00000170: 45fe 4cbd 69fe 4cbd dd03 48bd 2d11 553e
00000180: e10d f03c 4f96 05bd 6354 fcbc 8e91 12bd
00000190: dde3 3a3d 872b 4abd dddc 4abd e53f 583e
000001a0: 65f7 49bd fc53 803e ad7c 53bd 93c0 40bd
000001b0: ab31 8a3e 4b21 ca3d b71e 02bc ac8e b03e
000001c0: 9db7 4fbd ddb7 4dbd 986e 4cbd cdfd 4cbd
000001d0: 5e25 ca3e ec97 5cbd ec89 4dbd 5321 46bd
000001e0: 60f8 5cbd 2cc0 58bd 7fad 48bd 8ec0 37bd
000001f0: dafd 4cbd 0448 46bd eafd 4cbd 7b66 b53e
-0.034522325 -0.014036999 -0.038235176 -0.05019357 0.035785902 -0.048811723 0.33898664 -0.04960526
0.17863175 -0.04642167 0.25377294 -0.050331663 -0.030097688 -0.024015041 0.13161036 -0.035503976
0.120434925 -0.0628473 -0.07132052 -0.047322903 -0.056997176 -0.05107306 -0.034317207 -0.052159876
-0.050636474 -0.0164421 -0.04052116 -0.05004716 -0.05053811 -0.048923817 -0.060848244 -0.03934896
-0.0089531625 -0.06957811 -0.045355875 0.17080474 0.32626155 -0.051623918 0.3981324 -0.050757103
-0.040569365 0.009671005 -0.02869203 -0.030644275 -0.033248246 -0.055792477 -0.06898461 -0.073006414
-0.0500471 0.101369716 -0.05638617 -0.052464973 0.4011593 -0.04767789 0.46148288 -0.003966687
-0.053057145 -0.038271777 0.12704973 -0.06804251 -0.34310332 -0.02448774 -0.0120892525 0.24265742
-0.04787418 -0.049417917 -0.05184841 -0.0671514 -0.04946206 -0.048668772 -0.049811423 -0.01513883
-0.21008173 -0.045698553 -0.054847047 0.0071424195 -0.07719474 -0.018074615 -0.047071315 -0.06404311
-0.050826713 0.3704334 -0.029235104 -0.028051848 0.03207924 -0.050047003 0.2234745 0.23910087
-0.05004701 -0.050021138 -0.048062783 -0.049640402 -0.050047178 -0.050047312 -0.04883181 0.20807333
0.029303493 -0.03261405 -0.030801957 -0.035783343 0.045627464 -0.049357917 -0.049527038 0.21118124
-0.0493082 0.25064075 -0.051632572 -0.047058653 0.2699102 0.098696314 -0.007941893 0.3448385
-0.050712217 -0.050224174 -0.049910158 -0.05004673 0.39481634 -0.05385582 -0.05018036 -0.048371624
-0.053947806 -0.052917644 -0.048993584 -0.04486137 -0.05004678 -0.048408523 -0.05004684 0.3542975

l2.weight f4 [43, 128]
00000000: ede5 6bbe ace9 a63d 1035 163e 7bbd 873d
00000010: 307c a13e 4af9 c83b 7923 833e 9962 cf3d
00000020: dd8c 813e ba6a 863d 3e43 06be 0092 db3d
00000030: 40da 5ebe e661 7abd 0880 b1be 92d3 e7bd
00000040: bac2 53be e53d e5bd 61ed 003e 7c14 2abe
00000050: d36d cb3d 1f98 9f3d 998d e8bd a78b 613c
00000060: 6fbf 1abe a1b3 8abe 95ce 4fbe 2f2c ef3d
00000070: c5ba f23c 71f4 0e39 f443 8dbd ef4c 65bd
00000080: 359d c93b 139d 8bbd 739e 05be e1e5 e03d
00000090: 858d 57be 5dcb 3cbe 7511 463d acca 04be
000000a0: 2300 483c 7865 b5bd 1941 f13d eb04 88bd
000000b0: 6619 79be 774d b93c 0ecb 70be 6c52 ba3d
000000c0: 4df9 88bb b646 e2bd a5e0 b83c 2124 c83b
000000d0: ccb6 56be 3189 943d aa95 ec3d ffd7 dc3d
000000e0: bf54 a7bd cda3 a6bd 64f9 97be 4658 9abd
000000f0: 6bfc fbbe bf94 00bd 9626 2bbe c678 8f3e
00000100: 964d 57be cadb a83d 0370 2abe e68a 00bd
00000110: 2eb7 b6bd 5462 1abe 5b3c 6dbe ef28 09be
00000120: 0386 62bd 8899 2dbc a0d2 193d 1932 e83d
00000130: 4628 59bd c0ce ae3d 3e4a 73bd eafa bb3d
00000140: 26b3 8a3d e28f e4bb b511 55be cdfb a13d
00000150: 2286 a2bd dc0e fc3d d552 4dbe 4a91 81be
00000160: b889 66be bf7b 7abd 1cfd 9b3e c59f b53d
00000170: c83d 163d 74ab c7bd 720b 60bd c9d3 74be
00000180: b23c 4a3e 4625 78be 426d a63d d5c2 653d
00000190: 4bf9 e2be a9c4 61be 6450 58bd 32e5 bd3c
000001a0: 828d ec3d 771c b53d c40b 8f3d 1c80 6abe
000001b0: 1611 fb3e 4663 313e fa03 acbd ef58 34be
000001c0: 92b5 fb3c 9a83 8fbd 8e82 61be dd24 e0bc
000001d0: ffa0 55bf a85a cf3c ed61 2abe d8d7 f6bd
000001e0: dd27 36bd 086e 90bd c376 ff3d 1c03 3bbe
000001f0: e451 08bd ddc8 ad3c 382f 9c3d 0a43 34bc
00000200: 1af1 853e 5b5e e13d 2ae1 4f3e b548 613e
00000210: d846 8e3e 9137 313e c2aa d83e 3330 b53d
00000220: 8d02 403e ee25 b4bd ec7d a2bd 8116 4f3d
00000230: aa1a 12be 19e5 50bd eea2 a93b 2ff1 8dbd
00000240: f64b 98be a62b cd3d 1c98 ca3c 7459 f63d
00000250: cdca 253d 40d9 4bbd b4f9 7b3e 2a4f 043e
00000260: 1da9 ebbd c200 44be 9a7b e53d d81a 393d
00000270: c036 523c b658 a13d 414a f5bd e728 1d3e
00000280: b4c8 053e 9a5e 9a3d 15fb e03d 1ddf 1b3d
00000290: 91a1 97be 6d60 dfbc 5cda 323d b399 a43d
000002a0: 9abd a33c eac6 603e b04c 863e a0ed 7a3d
000002b0: 3894 c7bc 9f1c 3cbc 2b01 123e 24f0 0f3e
000002c0: f61f cfbd 8cde 02be 6a20 0d3e e32a 23be
000002d0: 89c2 80bd 0ccd 7b3d 266d 063c 0471 be3d
000002e0: 6eee 523d 23ce bb3d 9845 18be 465d 003e
000002f0: eb88 98be bea4 e2bc c87e c13d 99ec 8f3d
00000300: bb37 933b b3a0 3c3e c9dc 333d 2823 debd
00000310: edac afbc c1fa 98bd d21c 5d3d 1f75 203e
00000320: f71b 013e 964b 963d 0707 f23d ab53 c03d
00000330: f6c4 453e 0735 883e 5579 273c 6752 ee3d
00000340: 7cc0 9b3d d6c1 943d 6f96 293e 6b9d d0bb
00000350: afd2 21bd 504b de3d c56a edbd c4ac 4dbe
00000360: d199 e3bc 0068 a43c e96e 543d 335b d0bd
00000370: 0ea8 9abd eeec 43be afc4 283e bdf8 76be
00000380: 6b3c 70bd ffdd e43d 6d5d 603b 01d5 e13d
00000390: 9c33 ecbd baae 373e d29b 3c3e 1f16 e73d
000003a0: a01c 0cbb 6809 13bd 536f dbbd b449 b7bd
000003b0: f9f6 cb3e 7ed0 a63e f9f1 f13c ec81 37be
000003c0: 31c8 303e d51a 2d3c 3467 123d a94a e73d
000003d0: 99f4 acbe 9fad 0a3c 59c4 783e 223b 2c3d
000003e0: a8da b6bd 9bf8 673e 7105 223d 2f76 4a3e
000003f0: 99b2 dc3d 5fd1 883e 5e7b 6abd 4cf5 423d
-0.23036928 0.08150038 0.14668679 0.066279374 0.3154006 0.006133233 0.25613 0.10126228
0.25302783 0.06563325 -0.13111588 0.10721207 -0.21762943 -0.06112852 -0.34667993 -0.11319651
-0.20679751 -0.11193446 0.12590553 -0.16609377 0.09933057 0.07792687 -0.113551326 0.013766206
-0.15112089 -0.2709017 -0.20293649 0.11678349 0.029630074 0.00013633237 -0.06897727 -0.055981573
0.0061527737 -0.06817069 -0.13048725 0.10981346 -0.21050079 -0.18436952 0.048356492 -0.12967938
0.012207064 -0.08857244 0.117799945 -0.06641563 -0.24326095 0.022619946 -0.23514959 0.09097752
-0.0041801096 -0.11048643 0.022568056 0.0061078225 -0.20968169 0.0725273 0.11551984 0.107833855
-0.08170461 -0.08136711 -0.29682457 -0.07536368 -0.49216017 -0.031391855 -0.16713938 0.2802183
-0.2102569 0.082450464 -0.16644292 -0.031382464 -0.089216575 -0.15076572 -0.23167555 -0.13394521
-0.055303585 -0.010595687 0.037554383 0.1133768 -0.053016923 0.08535528 -0.059396975 0.091787174
0.06772451 -0.00697516 -0.20807536 0.07909355 -0.0793574 0.12307522 -0.20051129 -0.2530616
-0.22513473 -0.06115317 0.30466545 0.08868364 0.036680013 -0.09749499 -0.054698415 -0.23908915
0.19749716 -0.24232969 0.08126308 0.05609401 -0.4433082 -0.22047676 -0.05281104 0.023180578
0.11550428 0.0884332 0.06984666 -0.22900432 0.49036473 0.17323026 -0.08399196 -0.1761205
0.030726228 -0.07007523 -0.22022459 -0.027361328 -0.83448786 0.025311783 -0.16638918 -0.12052888
-0.04447161 -0.07052237 0.12473824 -0.18262905 -0.033281222 0.021213943 0.07626194 -0.0110023115
0.26160508 0.11004325 0.20300737 0.22000392 0.27788424 0.17306353 0.42317778 0.08847084
0.18750973 -0.08796297 -0.07934174 0.05055857 -0.14267984 -0.050999735 0.0051768934 -0.06930768
-0.29745454 0.10018091 0.024730735 0.120287806 0.04047661 -0.049767733 0.24606973 0.12920824
-0.11506865 -0.19140914 0.11205216 0.045191616 0.012830436 0.078782484 -0.119770534 0.15347634
0.13064843 0.07537575 0.1098539 0.038054574 -0.29615453 -0.02726766 0.043665275 0.08037128
0.01998787 0.2195088 0.26230383 0.061261773 -0.024362668 -0.011481433 0.14258258 0.1405645
-0.10113518 -0.12780207 0.13781896 -0.15934329 -0.06287105 0.061474845 0.008204734 0.092989
0.051496916 0.09170177 -0.14870298 0.12535581 -0.2979196 -0.027666446 0.0944801 0.07027549
0.0044927276 0.18420677 0.04391173 -0.10846549 -0.021444762 -0.074697025 0.053982563 0.15669678
0.12608324 0.073386356 0.118177466 0.093909584 0.19313416 0.26602957 0.010221799 0.11636811
0.07605073 0.07263534 0.16561292 -0.006366422 -0.039507564 0.108542085 -0.1159263 -0.20085436
-0.027783306 0.020069122 0.051863585 -0.10173645 -0.07551585 -0.1913335 0.16481279 -0.24118324
-0.05865137 0.11175155 0.0034235374 0.110269554 -0.11533281 0.17937747 0.18418816 0.11283516
-0.0021379367 -0.035897642 -0.10714593 -0.08949605 0.39836863 0.32580942 0.029534327 -0.17920655
0.17263867 0.010565479 0.035742953 0.11293537 -0.33780363 0.008464246 0.2429365 0.04204858
-0.08928424 0.22653429 0.03955597 0.19771646 0.10776252 0.26722237 -0.05724656 0.047597215

l2.bias f4 [43]
00000000: d166 403c 1dcd 863d 9171 34bd 5969 973e
00000010: d0cf b2bd 3fce 26bd fa6a 1cbe d334 283e
00000020: 8ee0 adbb 4634 b2bd caec 043c a5a2 34be
00000030: 7044 efbc 93cd cf3d f89c b83e 264d 8b3e
00000040: ee5e 88be 9261 83be d9a7 d0be 50de ebbe
00000050: e2e0 bfbe 57b5 babe 2b55 03bf 63b1 b8be
00000060: 8a8e 8d3d 418c 8d3e ac33 53be 5901 3f3c
00000070: 6d24 04be 5806 b9bd 6971 a8be 4bb2 3c3e
00000080: 3f12 1c3d 9881 d0ba 76d7 a6be 6ee6 2dbd
00000090: 75bb c3bd e860 88be 7414 f23c d715 d5bc
000000a0: f66f 993e da89 9dbb ea45 87bc
0.011743263 0.06582091 -0.044053618 0.2957256 -0.08731043 -0.040724035 -0.15275183 0.16426401
-0.00530631 -0.087013766 0.008113096 -0.17640169 -0.029207438 0.10146632 0.36057258 0.27207297
-0.26634926 -0.25660378 -0.40753058 -0.46068048 -0.3747626 -0.36466476 -0.5130183 -0.36072835
0.06911953 0.27646068 -0.2062518 0.011658036 -0.1290452 -0.09034413 -0.32899025 0.18427388
0.03810334 -0.0015907763 -0.3258626 -0.042456083 -0.09557239 -0.26636434 0.029550768 -0.02601139
0.29968232 -0.004807693 -0.01651283
