best_model.pt (torch, 437694 bytes, 107 tensors)

conv1.weight f4 [15, 3, 7, 7]
0.033416074 0.18084161 0.18437363 0.06951379 0.34335855 0.037430804 0.092196435 0.03292975
0.16763157 0.21272628 0.13671511 0.1101181 0.12486175 0.07543979 0.17873695 0.10265768
0.16800201 0.11567061 0.3216168 0.13932613 -0.052389465 0.3754535 0.093497775 0.054907568
0.116141595 0.31415948 0.39934772 0.24447514 0.032133922 0.06567507 0.065967254 -0.035955485
0.09231468 0.34653202 0.0049455995 0.0962278 0.1430338 0.21110658 0.2703679 0.07836105
0.13667932 0.11994252 0.25808218 0.09007561 0.120822966 0.13188897 0.0806343 0.20571373
0.3747723 -0.01626769 -0.10741978 -0.12457143 -0.076560594 -0.26117313 -0.08688714 -0.019516923
-0.08609708 -0.19019069 -0.11607854 -0.13092795 -0.13254493 -0.17872839 -0.11205193 -0.1473802
-0.5937928 -0.1765738 -0.09952348 -0.27435854 -0.19090295 -0.18006939 -0.21831125 -0.08965664
-0.16440468 -0.12449714 -0.08866762 -0.23609884 -0.25735092 -0.12430194 -0.097397 -0.016324515
-0.10853271 -0.11627202 -0.2318957 -0.05737141 -0.060022805 -0.100345515 -0.010944634 -0.08105242
-0.42016816 -0.1888325 -0.058032643 0.05332634 -0.124767184 0.023012932 -0.07570113 -0.03400581
-0.25464255 0.060029805 0.104845956 0.022521807 -0.15665044 -0.29071334 -0.23084465 -0.055284124
0.10268506 -0.050637178 -0.05156157 -0.030597666 -0.14178723 -0.25356057 -0.16794583 -0.11103083
-0.11693171 -0.15168846 0.017587936 -0.16356972 -0.1906384 -0.17558877 -0.12573573 -0.25943792
-0.13400675 -0.12441514 -0.1267388 -0.14727587 -0.107196026 -0.13780202 0.025077527 -0.03822626
-0.17156893 -0.13042176 -0.0816621 -0.096802786 -0.06827231 -0.013136753 -0.06757457 -0.06717113
-0.28210345 -0.12320114 -0.07472227 -0.08813422 0.053748414 -0.04187608 -0.106480606 -0.023849476
-0.13989905 -0.017557887 -0.1493246 -0.06514902 -0.023226717 -0.005689773 -0.055596452 -0.06542658
-0.087254815 -0.011320115 -0.052255146 -0.07570406 -0.002272785 -0.009315441 -0.11542895 0.07427059
-0.13543534 -0.03627218 -0.0053546787 -0.067285605 -0.019466989 -0.080153085 -0.0881066 -0.033754863
-0.10500544 0.0047977488 -0.072083734 -0.11788256 -0.0537867 -0.07437134 -0.08264538 -0.038851593
-0.05336389 -0.074368745 -0.13952973 -0.043903228 0.0027875572 -0.06446489 -0.073659346 -0.0019063244
-0.061746266 -0.10763403 -0.002677644 7.337474e-05 -0.13906853 0.019019675 -0.09854217 -0.0762043
0.0017227738 -0.0476925 -0.0169428 -0.09193765 -0.054958552 -0.12881175 -0.09998955 -0.13066639
-0.08331689 -0.08003488 -0.031828646 -0.03740169 0.009491914 -0.04194061 -0.07010686 -0.09255347
0.026419794 -0.035268262 -0.042967357 -0.08287247 -0.12190283 -0.09864425 -0.11644949 0.012961716
-0.049150184 -0.120776586 -0.007331009 -0.18015502 -0.076733686 -0.07031203 -0.060327698 -0.1559845
-0.084918715 -0.08163639 -0.1693123 -0.18214402 -0.16348551 -0.12308761 -0.06320356 -0.18809254
0.007797316 -0.0466209 -0.15030435 -0.051344685 -0.15533684 -0.14808634 -0.014129835 -0.15772775
-0.16979451 -0.09352957 -0.09768277 -0.0021310302 -0.07683671 -0.007934652 -0.09867348 -0.086376145
0.04438087 0.07048602 0.1187442 -0.007234286 -0.07043485 -0.006962488 0.07410554 -0.016370745
00000000: 4bdf 083d 8b2e 393e 71cc 3c3e 3f5d 8e3d
00000010: b1cc af3e 0b51 193d 7cd1 bc3d 58e1 063d
00000020: 9ca7 2b3e ebd4 593e 0cff 0b3e 9985 e13d
00000030: 84b7 ff3d 2d80 9a3d d206 373e 313e d23d
00000040: b808 2c3e b6e4 ec3d f5aa a43e 82ab 0e3e
00000050: 5696 56bd 713b c03e c37b bf3d c2e6 603d
00000060: a5db ed3d 83d9 a03e 4e77 cc3e b157 7a3e
00000070: dc9e 033d a780 863d d719 873d 0f46 13bd
00000080: 7b0f bd3d a56c b13e b20e a23b 1513 c53d
00000090: 7477 123e 532c 583e a96d 8a3e c27b a03d
000000a0: aaf5 0b3e 6da4 f53d 5923 843e 9079 b83d
000000b0: 0872 f73d e70d 073e 9923 a53d 9fa6 523e
000000c0: 28e2 bf3e d243 85bc e7fe dbbd 4e1f ffbd
000000d0: cdcb 9cbd 7cb8 85be e3f1 b1bd f4e1 9fbc
000000e0: aa53 b0bd 59c1 42be 96ba edbd fa11 06be
000000f0: dcb9 07be 9304 37be 7b7b e5bd d6ea 16be
00000100: ce02 18bf c3cf 34be f7d2 cbbd b978 8cbe
00000110: 107c 43be 1c64 38be fc8c 5fbe e79d b7bd
00000120: b359 28be 5bf8 febd 5f97 b5bd e5c3 71be
00000130: 80c3 83be 0492 febd 1478 c7bd fdba 85bc
00000140: 6646 debd 0620 eebd 1176 6dbe 49fe 6abd
00000150: 79da 75bd f381 cdbd 1f51 33bc d0fe a5bd
00000160: 4820 d7be 4f5d 41be a3b3 6dbd b86c 5a3d
00000170: f085 ffbd 9e85 bc3c 3209 9bbd ad49 0bbd
00000180: 8260 82be d0e1 753d 7ab9 d63d a77f b83c
00000190: f968 20be 61d8 94be 8a62 6cbe 9b71 62bd
000001a0: 8b4c d23d ee68 4fbd 3a32 53bd f5a7 fabc
000001b0: ac30 11be b1d2 81be fef9 2bbe 2264 e3bd
000001c0: e479 efbd 3854 1bbe 9314 903c d27e 27be
000001d0: b636 43be 8bcd 33be dec0 00be 0cd5 84be
000001e0: 1139 09be 5dcd febd d1c7 01be 7ccf 16be
000001f0: 9789 dbbd f91b 0dbe 636f cd3c 2493 1cbd
00000200: c4af 2fbe 488d 05be 763e a7bd 8a40 c6bd
00000210: 5ad2 8bbd 893b 57bc 8964 8abd 0491 89bd
00000220: dd6f 90be e150 fcbd fd07 99bd b77f b4bd
00000230: 4c27 5c3d 4186 2bbd 8112 dabd fa5f c3bc
00000240: b241 0fbe 8fd5 8fbc 8ce8 18be d96c 85bd
00000250: f545 bebc 4671 babb 1bb9 63bd 5ffe 85bd
00000260: a7b2 b2bd 0178 39bc 7e09 56bd bb0a 9bbd
00000270: 01f3 14bb cb9f 18bc 0366 ecbd 2e1b 983d
00000280: 90af 0abe 2392 14bd 4d76 afbb 09cd 89bd
00000290: 3c79 9fbc 4d27 a4bd 3c71 b4bd 8a42 0abd
000002a0: 180d d7bd 6f36 9d3b a3a0 93bd 696c f1bd
000002b0: 714f 5cbd 0050 98bd fb41 a9bd d922 1fbd
000002c0: 1894 5abd a44e 98bd e2e0 0ebe dfd3 33bd
000002d0: 73af 363b 2b06 84bd b6da 96bd a2dd f9ba
000002e0: a7e9 7cbd 3b6f dcbd 697b 2fbb c3e0 9938
000002f0: fb67 0ebe 26cf 9b3c 7ad0 c9bd 0011 9cbd
00000300: b2ce e13a 3659 43bd a0cb 8abc cf49 bcbd
00000310: 381c 61bd 3ae7 03be 52c7 ccbd 69cd 05be
00000320: 0ca2 aabd 54e9 a3bd c15e 02bd 8432 19bd
00000330: f983 1b3c ebc9 2bbd 2f94 8fbd ac8c bdbd
00000340: 536e d83c 7475 10bd 8afe 2fbd 0bb9 a9bd
00000350: 31a8 f9bd ff05 cabd 127d eebd 615d 543c
00000360: b451 49bd b759 f7bd f638 f0bb 8f7a 38be
00000370: 8d26 9dbd c1ff 8fbd 2d1a 77bd 67ba 1fbe
00000380: dde9 adbd fb30 a7bd 3460 2dbe f683 3abe
00000390: bf68 27be 5b15 fcbd de70 81bd 559b 40be
000003a0: a180 ff3b 8ff5 3ebd 62e9 19be ce4e 52bd
000003b0: 9f10 1fbe f2a3 17be d380 67bc 6283 21be
000003c0: 9dde 2dbe 6e8c bfbd e70d c8bd c1a8 0bbb
000003d0: 915c 9dbd 5800 02bc 5215 cabd fae5 b0bd
000003e0: b7c8 353d f95a 903d 2930 f33d 970d edbb
000003f0: 2640 90bd 9525 e4bb a5c4 973d f11b 86bc

bn1.weight f4 [15]
1.233001 0.73382926 0.9674434 0.71085435 1.0314204 1.179439 0.66330844 1.177556
1.1905171 1.2012267 0.73365474 0.79778165 1.1510803 0.94362307 1.0611123
00000000: fad2 9d3f 3cdc 3b3f 5faa 773f 8dfa 353f
00000010: 9505 843f dbf7 963f 95ce 293f 28ba 963f
00000020: dd62 983f ccc1 993f ccd0 3b3f 6b3b 4c3f
00000030: 9956 933f 4891 713f 87d2 873f

bn1.bias f4 [15]
-0.17765337 -0.19812748 0.095740356 -0.15401126 0.5629461 0.04277196 -0.23980995 0.32059407
0.24340287 0.18818364 0.1497813 0.19421007 0.27976456 0.26435328 0.5065112
00000000: c4ea 35be eee1 4abe 8513 c43d 21b5 1dbe
00000010: 3c1d 103f a731 2f3d bd90 75be e824 a43e
00000020: 9a3e 793e 36b3 403e 4560 193e 01df 463e
00000030: 4d3d 8f3e 5059 873e b8aa 013f

bn1.running_mean f4 [15]
-0.25458983 -0.45981357 0.14415774 0.49042094 0.6671498 -0.1906654 -0.03070067 -0.04826335
0.83797276 0.60584 0.21210186 0.44749504 -0.42735237 -0.24283746 0.12393454
00000000: 9959 82be af6c ebbe 169e 133e 7418 fb3e
00000010: 54ca 2a3f ca3d 43be f97f fbbc caaf 45bd
00000020: 6285 563f 5518 1b3f 3b31 593e 121e e53e
00000030: eecd dabe 62aa 78be 64d1 fd3d

bn1.running_var f4 [15]
54.376305 183.48451 19.920065 181.197 6.0247135 35.757587 57.630676 37.89725
11.925048 19.061014 76.07664 153.45824 19.032763 15.452822 18.37005
00000000: 5681 5942 097c 3743 4b5c 9f41 6f32 3543
00000010: 74ca c040 c507 0f42 d085 6642 c996 1742
00000020: ffcc 3e41 f57c 9841 3d27 9842 4f75 1943
00000030: 1943 9841 c23e 7741 ddf5 9241

layer1.0.conv1.weight f4 [20, 15, 3, 3]
-0.16710542 0.008613238 0.18991782 -0.24273261 -0.24087994 0.07716858 -0.25787273 -0.2519767
0.2047009 -0.113386974 -0.106647715 0.21837312 -0.05773039 -0.16304821 0.1453999 -0.09681494
-0.22552982 -0.13034059 -0.0028548455 0.048466343 -0.062878944 0.08799872 0.12083578 -0.12574328
0.17113775 0.11297167 -0.026254937 0.07257474 -0.045764834 -0.081334926 0.024678135 -0.2117649
-0.098031 0.24520534 0.11076497 0.17099252 0.30148107 0.08610797 -0.07832627 0.011052867
0.10822313 0.0741938 0.3211817 -0.22462843 0.077268094 0.04759967 0.061329488 -0.11459447
-0.17203473 -0.22046994 0.05525403 -0.11284483 -0.2392399 0.012267197 -0.05624535 0.030647045
-0.029444786 0.13749924 0.32318035 -0.12219826 -0.07731783 0.14320053 0.15018788 0.06920726
0.39769435 0.088595174 -0.26290417 0.41352618 0.27873352 0.38379383 0.1848352 -0.027011173
0.35116696 0.13831069 -0.03051776 0.1567543 0.20133325 0.22516352 -0.04155084 0.18894984
-0.06535983 0.032937355 0.17923713 0.14984702 -0.15438695 0.024395794 0.036951024 -0.14493771
0.0013136367 -0.07620138 -0.05824168 -0.18339041 -0.19910765 -0.22737029 0.15195721 -0.0032514753
-0.006281011 0.15021302 0.03439617 -0.15869294 0.09559432 -0.08039192 -0.13576102 0.1737151
-0.022545617 0.1855599 0.15692028 0.15139689 0.17243722 -0.06497303 -0.027567444 -0.26975176
-0.09511022 0.11236266 -0.015118755 -0.14805235 0.0014028623 -0.06978907 -0.047395602 -0.17026266
-0.24768254 0.059269316 -0.05286825 0.104147166 0.00046161213 0.3078565 0.064302325 0.100640394
-0.051376313 0.3584172 0.085902035 0.28114876 0.13104674 0.16457261 0.51497847 0.15048118
0.104042284 0.16673715 0.07294537 -0.2620208 -0.32490197 0.072100684 0.0061572194 -0.39258698
0.1255326 0.1627816 -0.32631257 -0.041240722 -0.07595098 -0.11360769 -0.13677706 -0.024724333
-0.07119266 -0.30101767 -0.3372355 -0.41078556 -0.1901368 -0.34611648 -0.10433125 -0.007421957
-0.03601913 -0.09869065 0.12419465 -0.41099244 0.01501466 0.00973807 -0.22571763 -0.047857117
-0.31403857 -0.021323608 -0.10122516 0.109591156 0.37541315 -0.16272196 0.14747299 -0.010573682
-0.296235 -0.005295857 -0.21041371 0.019575983 0.26022336 -0.05932115 -0.103506744 0.0046992907
-0.044900194 -0.25714955 0.15685731 -0.17264722 -0.025251115 0.23868452 -0.12699345 -0.052812986
-0.1281416 -0.037203304 -0.16427591 -0.028466566 -0.17215344 -0.08115806 -0.027919633 0.22593652
0.5091703 -0.050740574 0.06586647 -0.17034245 0.009340193 -0.11012572 0.1609384 -0.11704679
0.42254525 0.557734 -0.28496277 0.2784053 0.15695156 -0.17002617 0.030016989 -0.17224312
0.026057592 0.45422357 0.40560395 -0.19475818 -0.11313158 -0.019532613 -0.09756318 0.07750074
-0.0035373787 0.0015140153 -0.05745466 -0.2852513 -0.05842538 -0.09479111 -0.2504913 -0.065509506
-0.10091795 -0.17067292 -0.113772966 -0.105284914 0.07710136 0.034943517 0.10613223 -0.09532066
-0.043050107 0.061739102 -0.24488935 -0.024240078 -0.13846277 -0.19776325 0.008056781 -0.18099962
0.0013301388 -0.034625266 0.045724943 0.11877115 0.18061444 -0.17689355 -0.44598246 -0.022033112
00000000: af1d 2bbe 8a1e 0d3c d179 423e e68e 78be
00000010: 3ba9 76be 8f0a 9e3d e507 84be 1703 81be
00000020: 1d9d 513e 6e37 e8bd 1e6a dabd 349d 5f3e
00000030: b476 6cbd 1cf6 26be b6e3 143e e946 c6bd
00000040: 4af1 66be 0178 05be 5c18 3bbb a584 463d
00000050: adc6 80bd ac38 b43d c078 f73d d9c2 00be
00000060: bc3e 2f3e b15d e73d 9814 d7bc 11a2 943d
00000070: e873 3bbd ed92 a6bd cd29 ca3c e6d8 58be
00000080: 7ac4 c8bd 1c17 7b3e bfd8 e23d aa18 2f3e
00000090: ba5b 9a3e 6059 b03d 8669 a0bd 1617 353c
000000a0: 17a4 dd3d ebf2 973d ee71 a43e ff04 66be
000000b0: bc3e 9e3d dff7 423d a134 7b3d 81b0 eabd
000000c0: df29 30be dfc2 61be 0d52 623d 311b e7bd
000000d0: 4efb 74be 5afc 483c 8661 66bd 830f fb3c
000000e0: 3136 f1bc 9acc 0c3e e577 a53e 1543 fabd
000000f0: cf58 9ebd 29a3 123e daca 193e 89bc 8d3d
00000100: 989e cb3e 6371 b53d 609b 86be b4b9 d33e
00000110: 29b6 8e3e a080 c43e 7045 3d3e 8946 ddbc
00000120: 28cc b33e 51a1 0d3e 6200 fabc 3384 203e
00000130: 4e2a 4e3e 4491 663e 3731 2abd 117c 413e
00000140: 60db 85bd 52e9 063d f089 373e 7f71 193e
00000150: 9d17 1ebe b0d9 c73c f559 173d 8d6a 14be
00000160: 552e ac3a 780f 9cbd d48e 6ebd b2ca 3bbe
00000170: e0e2 4bbe c2d3 68be ac9a 1b3e b416 55bb
00000180: f0d0 cdbb 71d1 193e 00e3 0c3d 6780 22be
00000190: f4c6 c33d 85a4 a4bd f004 0bbe 5fe2 313e
000001a0: 96b1 b8bc 6a03 3e3e b6af 203e c907 1b3e
000001b0: 6293 303e 9410 85bd 1fd5 e1bc e71c 8abe
000001c0: 26c9 c2bd 651e e63d a8b4 77bc 099b 17be
000001d0: 3fe0 b73a 92ed 8ebd e421 42bd 5659 2ebe
000001e0: 7ea0 7dbe 62c4 723d 618c 58bd 1c4b d53d
000001f0: 8804 f239 5e9f 9d3e f0b0 833d 8d1c ce3d
00000200: f86f 52bd 7682 b73e 68ed af3d bbf2 8f3e
00000210: 1e31 063e b985 283e a1d5 033f bd17 1a3e
00000220: 1f14 d53d 25bd 2a3e 6264 953d 9727 86be
00000230: 8d59 a6be 86a9 933d 80c2 c93b 2901 c9be
00000240: 9e8b 003e 38b0 263e 7112 a7be 08ec 28bd
00000250: 308c 9bbd 26ab e8bd 490f 0cbe af8a cabc
00000260: 75cd 91bd fd1e 9abe 22aa acbe 7c52 d2be
00000270: 39b3 42be 2e36 b1be 9fab d5bd e333 f3bb
00000280: cc88 13bd 531e cabd c459 fe3d 9a6d d2be
00000290: 0c00 763c 6d8c 1f3c 8622 67be d305 44bd
000002a0: aac9 a0be d9ae aebc 234f cfbd 5471 e03d
000002b0: 2736 c03e 96a0 26be 2903 173e 3d3d 2dbc
000002c0: 1dac 97be de88 adbb b176 57be d05d a03c
000002d0: ff3b 853e bcfa 72bd 58fb d3bd 82fc 993b
000002e0: 44e9 37bd 1ba9 83be 349f 203e 6fca 30be
000002f0: 6ddb cebc b769 743e 920a 02be 6e52 58bd
00000300: 8d37 03be 7e62 18bd f237 28be b732 e9bc
00000310: fe48 30be 3236 a6bd b7b7 e4bc e75b 673e
00000320: fc58 023f 59d5 4fbd 00e5 863d 406e 2ebe
00000330: 9c07 193c 9889 e1bd 09cd 243e 3ab6 efbd
00000340: da57 d83e a8c7 0e3f a4e6 91be 248b 8e3e
00000350: e9b7 203e 571b 2ebe 30e6 f53c 8060 30be
00000360: bb76 d53c fe8f e83e 52ab cf3e b06e 47be
00000370: 88b1 e7bd dc02 a0bc 34cf c7bd b5b8 9e3d
00000380: 5ed3 67bb ec71 c63a 9455 6bbd 750c 92be
00000390: 744f 6fbd d721 c2bd 6540 80be d929 86bd
000003a0: 12ae cebd e2c4 2ebe cd01 e9bd 9e9f d7bd
000003b0: 51e7 9d3d ef20 0f3d db5b d93d 7a37 c3bd
000003c0: 4f55 30bd 24e2 7c3d 46c4 7abe 2193 c6bc
000003d0: 2fc9 0dbe 7382 4abe 9700 043c f757 39be
000003e0: 0d58 ae3a 39d3 0dbd 144a 3b3d 4a3e f33d
000003f0: fef2 383e 9523 35be d057 e4be c97e b4bc

layer1.0.bn1.weight f4 [20]
0.86871684 1.0469393 0.8823606 1.0817959 0.82853204 0.9730514 0.9232983 0.93023723
0.7593074 1.0175892 1.7167313 0.85136205 1.1351211 0.75780076 1.0207715 1.0916288
1.3506995 1.0773128 1.0566071 0.91857713
00000000: 3a64 5e3f 1b02 863f 62e2 613f 4a78 8a3f
00000010: ad1a 543f e619 793f 475d 6c3f 0724 6e3f
00000020: f861 423f 5d40 823f dabd db3f ddf2 593f
00000030: a64b 913f 3bff 413f a4a8 823f 7eba 8b3f
00000040: b9e3 ac3f 63e5 893f e73e 873f df27 6b3f

layer1.0.bn1.bias f4 [20]
0.06946518 -0.023318859 -0.27382928 -0.053165175 -0.042439133 -0.018440694 0.03982879 0.041721884
0.22020367 -0.23446298 -0.081366114 -0.17241691 0.012957624 0.22733776 -0.14239301 0.045793455
0.012282716 -0.2582549 0.29311565 -0.18981096
00000000: c343 8e3d 3107 bfbc 5a33 8cbe bac3 59bd
00000010: a8d4 2dbd f010 97bc 8323 233d 91e4 2a3d
00000020: 127d 613e 1017 70be 47a3 a6bd 0f8e 30be
00000030: 374c 543c 3bcb 683e 79cf 11be eb91 3b3d
00000040: 723d 493c fc39 84be 4113 963e ce5d 42be

layer1.0.bn1.running_mean f4 [20]
4.397291 -0.5330017 -4.947742 -2.460739 1.3775773 -1.9978907 -4.6139326 1.7154623
3.2896976 -1.3879935 -1.2430304 1.4830806 -0.8538794 0.62479806 -0.39653626 -0.75289696
-2.6330833 -1.9739463 1.4545594 -4.3843856
00000000: 9cb6 8c40 cd72 08bf e753 9ec0 bf7c 1dc0
00000010: 7454 b03f e2ba ffbf 56a5 93c0 4594 db3f
00000020: 688a 5240 c5a9 b1bf 9f1b 9fbf 96d5 bd3f
00000030: d797 5abf c4f2 1f3f cd06 cbbe dbbd 40bf
00000040: 7084 28c0 46aa fcbf 012f ba3f e34c 8cc0

layer1.0.bn1.running_var f4 [20]
14.211503 6.424817 17.678503 11.219723 4.616752 11.655273 8.767689 7.930754
24.351763 5.774524 7.404692 11.754834 8.6724205 6.279947 10.309733 5.229796
11.262635 8.773812 6.709314 12.237438
00000000: 5162 6341 1a98 cd40 936d 8d41 fc83 3341
00000010: 6fbc 9340 007c 3a41 7448 0c41 bdc8 fd40
00000020: 69d0 c241 e7c8 b840 3df3 ec40 cd13 3c41
00000030: 3cc2 0a41 53f5 c840 abf4 2441 7d5a a740
00000040: c133 3441 8961 0c41 b3b2 d640 8ccc 4341

layer1.0.conv2.weight f4 [20, 20, 3, 3]
-0.1310417 -0.14866337 -0.05521801 -0.22234626 -0.19453509 -0.07993415 0.09111164 -0.17202635
-0.25692275 0.09589191 -0.09091472 -0.04236587 0.033792734 0.19767307 0.13314132 0.16642025
0.50320953 0.29766682 -0.011136906 0.006609253 0.17214571 0.1122465 -0.14805442 -0.0034034369
0.05063073 0.02067341 0.1769278 0.19460323 0.12202034 -0.09847252 0.24276447 -0.15580086
-0.11119084 0.13370155 0.21932672 0.097633384 -0.20734783 -0.115114264 -0.046848666 0.104619674
0.026828123 -0.1351145 -0.07562062 0.034061227 -0.03397439 0.0123680895 0.15304685 -0.17492679
0.1848161 0.008023677 -0.012486448 0.16459619 0.020343946 -0.029488934 0.15767619 0.20315805
0.13493006 0.25416356 0.2033719 0.10847089 0.25998932 0.2305581 -0.140992 -0.38747588
-0.25068477 -0.06937862 -0.44054964 -0.15135737 -0.25365296 -0.26793063 -0.3040848 -0.15348971
0.13117091 0.18976401 0.039005663 0.021952763 -0.012632371 0.10808897 0.18985708 0.06896291
0.33024904 0.07064571 -0.11723018 -0.3689532 -0.17177002 0.35305676 0.29627308 -0.032633357
0.30322504 0.16667384 0.019692471 0.05263487 -0.013293178 0.0059775217 -0.20508717 -0.16905873
-0.016483085 -0.3169966 0.037026998 0.0001431721 0.018271025 0.17000258 -0.022341132 0.10182283
0.11520058 0.028833726 0.03878253 -0.07332622 -0.25039735 0.011522763 -0.19441444 0.10018006
0.37877735 -0.258804 -0.034586355 0.07577613 0.2522168 0.043793097 0.42104614 0.1276393
-0.23100471 -0.07763044 0.05123079 -0.12900415 -0.07558646 -0.046757974 -0.06889707 -0.0045569874
0.08777753 -0.01706944 -0.014471105 0.18459526 0.09424943 -0.04711606 0.05049207 0.24833062
-0.08443149 0.013925531 -0.015584588 -0.30751738 -0.108853064 -0.26277786 -0.0722976 0.2396461
-0.12992842 -0.0084751155 0.16835864 -0.3477105 -0.37479955 -0.03742261 -0.20741813 0.039998103
-0.031407762 -0.27186823 -0.20157045 -0.30113843 -0.03597532 -0.07735692 -0.20745128 -0.06196458
-0.06100179 -0.18902262 0.08661777 0.21805786 0.36675367 -0.06366156 -0.2688442 0.027985267
-0.06605196 -0.21265572 -0.31406736 0.06591318 -0.09648391 0.024015699 0.11792741 -0.13319397
-0.16038674 0.15609229 0.14411594 0.1113978 -0.22974999 -0.40800703 -0.07932421 0.081252106
-0.012687024 -0.17270055 0.05933657 0.025928037 -0.34846827 0.026870677 0.29748094 0.17133233
0.027638674 0.27943802 0.20464191 -0.011819457 -0.27140832 -0.15685694 -0.09794673 0.0019067376
0.20391463 -0.008919019 0.21132699 0.26541793 -0.082880065 -0.20837288 -0.036668304 0.09215222
0.017608449 -0.10033179 0.2511539 -0.043460127 -0.32910016 0.26870382 -0.13142781 -0.2907985
0.038237084 -0.0064400844 -0.06915866 -0.08746031 -0.091938935 0.078638315 0.2299456 0.05277789
0.19399424 0.10451741 -0.2429389 -0.2380535 0.01937583 -0.14873767 0.041603923 0.18147694
0.13011438 0.03414293 0.09204897 -0.092831254 -0.32008067 0.27521127 -0.0053363605 0.19991705
0.34774214 0.24061207 0.24194282 -0.07081892 -0.02052163 -0.080766104 0.079007484 0.12845722
-0.1675669 0.115185045 0.114521235 0.13446426 -0.26902035 0.19346994 -0.13179114 0.042615715
00000000: cc2f 06be 363b 18be 482c 62bd bdae 63be
00000010: 3534 47be 84b4 a3bd bd98 ba3d ad27 30be
00000020: 618b 83be fa62 c43d 7f31 babd d687 2dbd
00000030: 406a 0a3d cf6a 4a3e 3356 083e 126a 2a3e
00000040: 57d2 003f c967 983e 9277 36bc 6f92 d83b
00000050: f746 303e 7ee1 e53d 949b 17be 320c 5fbb
00000060: 2b62 4f3d 485b a93c 902c 353e 1246 473e
00000070: cde5 f93d f6ab c9bd 4097 783e 438a 1fbe
00000080: 06b8 e3bd 0fe9 083e 2f97 603e 03f4 c73d
00000090: fd52 54be 07c1 ebbd 63e4 3fbd d742 d63d
000000a0: a7c6 db3c 755b 0abe fcde 9abd c983 0b3d
000000b0: bb28 0bbd 87a3 4a3c 50b8 1c3e 0220 33be
000000c0: 6f40 3d3e be75 033c f593 4cbc e78b 283e
000000d0: 59a8 a63c c792 f1bc de75 213e aa08 503e
000000e0: 1b2b 0a3e ba21 823e b940 503e fc25 de3d
000000f0: 521d 853e 6c17 6c3e 3560 10be 3d63 c6be
00000100: c159 80be 6116 8ebd b98f e1be 6dfd 1abe
00000110: cdde 81be 342e 89be 01b1 9bbe 682c 1dbe
00000120: ab51 063e 7f51 423e 67c4 1f3d 48d6 b33c
00000130: 01f8 4ebc c05d dd3d e569 423e 6d3c 8d3d
00000140: 6716 a93e b3ae 903d 6016 f0bd 6fe7 bcbe
00000150: 7be4 2fbe dbc3 b43e 1bb1 973e 8eaa 05bd
00000160: 5040 9b3e 8cac 2a3e 1b52 a13c a997 573d
00000170: a1cb 59bc 16df c33b 5f02 52be bb1d 2dbe
00000180: 8907 87bc 614d a2be 9fa9 173d 7820 1639
00000190: 1ead 953c 2815 2e3e c004 b7bc 7d88 d03d
000001a0: 48ee eb3d b534 ec3c 6eda 1e3d 0f2c 96bd
000001b0: 1534 80be f9c9 3c3c 9414 47be 342b cd3d
000001c0: 1bef c13e f581 84be 6caa 0dbd 8430 9b3d
000001d0: 8f22 813e 6460 333d 5c93 d73e e0b3 023e
000001e0: 808c 6cbe b5fc 9ebd 60d7 513d aa19 04be
000001f0: 13cd 9abd 4a85 3fbd e819 8dbd c852 95bb
00000200: b5c4 b33d 36d5 8bbc 3718 6dbc 8a06 3d3e
00000210: d805 c13d c5fc 40bd c6d0 4e3d 624a 7e3e
00000220: 6bea acbd e927 643c 8056 7fbc eb72 9dbe
00000230: 5bee debd d28a 86be c410 94bd ca65 753e
00000240: f50b 05be 36db 0abc 3566 2c3e 1c07 b2be
00000250: bae5 bfbe 7348 19bd 6b65 54be 0dd5 233d
00000260: 6da5 00bd 5032 8bbe 7c68 4ebe d12e 9abe
00000270: db5a 13bd 4e6d 9ebd 1c6e 54be 92ce 7dbd
00000280: 03dd 79bd 258f 41be a864 b13d 8f4a 5f3e
00000290: 23c7 bb3e fe60 82bd f2a5 89be 5c41 e53c
000002a0: 4046 87bd 6cc2 59be 70cd a0be 7dfd 863d
000002b0: 5b99 c5bd 92bc c43c ed83 f13d 0064 08be
000002c0: 6c3c 24be a8d6 1f3e 2193 133e 8824 e43d
000002d0: 9543 6bbe 4ce6 d0be bb74 a2bd 8167 a63d
000002e0: 3cdd 4fbc 6ad8 30be e70a 733d 0967 d43c
000002f0: 6f6a b2be e51f dc3c 6c4f 983e be71 2f3e
00000300: 806a e23c 8012 8f3e a68d 513e 65a6 41bc
00000310: 08f6 8abe 1b9f 20be 4c98 c8bd 7feb f93a
00000320: ffce 503e 1421 12bc 1a66 583e dce4 873e
00000330: 06bd a9bd b35f 55be 8131 16bd 4eba bc3d
00000340: 983f 903c c17a cdbd 3e97 803e 3f03 32bd
00000350: d17f a8be 8c93 893e 0395 06be 8ae3 94be
00000360: 7d9e 1c3d 5807 d3bb 0ea3 8dbd 641e b3bd
00000370: 7b4a bcbd 200d a13d dc76 6b3e a12d 583d
00000380: 6da6 463e 390d d63d fac4 78be 4cc4 73be
00000390: 10ba 9e3c b04e 18be e068 2a3d 17d5 393e
000003a0: b43c 053e 75d9 0b3d 2c84 bc3d 501e bebd
000003b0: 9de1 a3be 7ee8 8c3e a3dc aebb 0eb7 4c3e
000003c0: 420b b23e 0363 763e dcbf 773e 8309 91bd
000003d0: fa1c a8bc b368 a5bd adce a13d 4a8a 033e
000003e0: a896 2bbe 23e6 eb3d 1c8a ea3d 00b1 093e
000003f0: 09bd 89be fc1c 463e 42f4 06be d18d 2e3d

layer1.0.bn2.weight f4 [20]
0.9910485 0.96667695 0.85617226 0.943104 0.76827043 0.8825567 0.67520565 0.9997829
1.0775344 0.922107 0.97149307 1.1509631 0.9844301 0.96690017 0.9083354 0.9942921
0.8446188 1.0382236 0.95952857 1.0672878
00000000: 5bb5 7d3f 2478 773f 1b2e 5b3f 446f 713f
00000010: 5fad 443f 3cef 613f 47da 2c3f c6f1 7f3f
00000020: a6ec 893f 340f 6c3f c5b3 783f c252 933f
00000030: 9c03 7c3f c586 773f ab88 683f ed89 7e3f
00000040: f038 583f 83e4 843f aaa3 753f e39c 883f

layer1.0.bn2.bias f4 [20]
0.09099104 0.40586478 -0.17473853 -0.01998398 -0.069606215 0.05517192 -0.025743634 -0.02685578
0.024591383 0.1399104 0.18190804 -0.030923722 0.10585083 -0.15026413 -0.008112256 -0.025129464
-0.12468312 0.24584337 0.11372566 -0.1752331
00000000: 8359 ba3d 82cd cf3e a8ee 32be 72b5 a3bc
00000010: b48d 8ebd f4fb 613d 50e4 d2bc a700 dcbc
00000020: de73 c93c ac44 0f3e 1a46 3a3e bf53 fdbc
00000030: 52c8 d83d d7de 19be 45e9 04bc 4edc cdbc
00000040: dd59 ffbd 5dbe 7b3e 00e9 e83d 4e70 33be

layer1.0.bn2.running_mean f4 [20]
-0.37251666 -0.5908268 0.036387403 -1.7790277 1.0396008 -1.858397 -1.3204188 0.89046794
-1.18729 1.4609014 0.01253788 0.13186732 2.5037503 0.9551437 -2.828736 -0.6631132
1.0066335 -0.8416208 0.69470704 0.3737679
00000000: 81ba bebe 6d40 17bf f50a 153d 2eb7 e3bf
00000010: a411 853f f4df edbf 7c03 a9bf b5f5 633f
00000020: 1ef9 97bf d1fe ba3f ae6b 4d3c 3a08 073e
00000030: 723d 2040 4c84 743f 030a 35c0 c9c1 29bf
00000040: 5ed9 803f 7674 57bf 52d8 313f 825e bf3e

layer1.0.bn2.running_var f4 [20]
3.8976953 2.813201 4.7451816 5.8033843 6.5332537 3.09834 4.287698 3.3489697
6.884841 7.8609123 4.418246 3.6293132 6.538087 5.8806314 7.199453 5.2356267
4.8575854 4.856597 5.2388754 3.7158391
00000000: d773 7940 7c0b 3440 87d8 9740 53b5 b940
00000010: 6a10 d140 344b 4640 d234 8940 8555 5640
00000020: 9e50 dc40 988c fb40 4562 8d40 ab46 6840
00000030: 0238 d140 222e bc40 eb61 e640 418a a740
00000040: 5771 9b40 3e69 9b40 dea4 a740 4fd0 6d40

layer1.0.downsample.0.weight f4 [20, 15, 1, 1]
0.15558355 0.1283624 0.23310296 0.3187708 0.26184922 0.07155224 0.16304193 0.032745734
0.566986 0.5194907 -0.5954169 -0.044430666 -0.20058347 0.0076578055 -0.32069385 0.55744076
0.008817155 -0.26356933 0.015998526 0.27438655 -0.44859642 0.41431653 -0.17260998 0.16128612
-0.15230419 0.16831225 -0.29968968 0.059197307 -0.17791231 0.5494553 0.9507203 0.06383015
0.58196956 -0.090517566 -0.04188274 0.6395017 -0.270556 -0.031028427 0.04613044 0.029039456
-0.048417393 -0.16021359 0.05696454 -0.43072176 0.17981032 0.76867396 -0.1609768 0.120419346
-0.21021113 -0.80247486 0.4954133 -0.13395652 0.5000166 -0.072302945 -0.028079974 0.32965022
0.40275198 0.19075742 0.027045863 -0.28726944 0.3445106 -0.06972148 -0.66377103 0.38330045
0.12738699 0.38798064 -0.11971624 0.038628586 0.48040608 0.7860707 -0.18193616 -0.2965251
-0.27524576 -0.5661578 -0.46436408 -0.4389369 -0.26922044 0.273835 0.44235554 0.33364114
0.2950497 -0.30074015 0.25284204 0.2360432 -0.035800826 0.23605095 0.6741304 0.2398981
0.0007863006 -0.019458663 0.4447645 -0.060232885 0.56526774 -0.32661912 0.1300439 -0.2482807
0.39719537 0.5312455 0.29771549 0.28279236 0.46530002 0.6894551 0.7269458 0.605322
-0.003268101 0.12005519 0.35918564 0.22116269 -0.4491711 -0.069349624 0.26940498 -0.72443986
-0.29782873 -0.24025072 0.38936818 -0.03937564 -0.5697637 0.26625797 0.5459594 0.13076998
-0.22323889 -0.6266269 0.1815668 0.122221254 0.29756004 -0.0721972 -0.24559838 -0.2889123
-0.17391141 0.06012196 0.39641523 0.4352188 -0.31755522 0.3746358 -0.4852365 -0.015527676
-0.33092222 -0.16108072 -0.18857062 0.48280072 -0.059134476 -0.31276712 -0.720205 0.10857284
-0.3751861 -0.06519858 -0.29019013 -0.8322364 0.00888139 0.11525791 -0.4816403 -0.08628425
0.08045268 0.29940113 -0.12438987 -0.5216203 0.11769221 -0.0089033265 0.24568619 0.17591086
0.25728592 0.114302866 0.3068928 -0.65484923 0.06886475 -0.14810732 -0.21584742 0.037224345
0.17814283 -0.14371023 -0.6051447 -0.08248508 -0.4258641 -0.38377234 -0.17657857 -0.07024584
0.07408363 -0.13941625 0.36313307 -0.40489957 -0.119141944 -0.07269354 0.26535743 -0.084586106
0.32136017 -0.006516017 -0.02578541 -0.029017773 -0.22171009 -0.019304272 -0.39872774 -0.36387476
-0.23399149 0.13613954 -0.78775126 0.09547757 0.2894457 0.19783199 0.60766226 0.42738807
0.6593083 -0.38357013 0.15835617 0.50772846 -0.13466811 0.20230296 0.38388693 -0.05617683
0.10141919 -0.16749455 0.087903485 -0.17073199 -0.5668988 -0.20153022 -0.27333575 -0.22581401
-0.5252031 0.004686633 0.44125652 -0.017996939 -0.023598736 0.388661 -0.3483148 -0.30009136
-0.17582433 -0.11655556 0.27263996 0.25759262 -0.32208106 -0.09472745 -0.09027027 -0.29793602
0.16617648 0.22000587 -0.08200713 0.6486922 0.19725513 0.06264148 -0.17257988 0.4402298
-0.26754534 0.039701995 -0.19662607 0.07561435 -0.1212369 0.00811991 0.57782435 -0.850961
-0.11532299 -0.07483767 0.35677427 -0.3424802 -0.19589408 0.1630386 -0.18263578 -0.36737096
00000000: 4b51 1f3e 6f71 033e 8bb2 6e3e ed35 a33e
00000010: 1a11 863e fb89 923d 77f4 263e 6420 063d
00000020: ff25 113f 58fd 043f 3e6d 18bf eefc 35bd
00000030: c165 4dbe 54ee fa3b fc31 a4be 70b4 0e3f
00000040: d475 103c 8ff2 86be 570f 833c 657c 8c3e
00000050: 6eae e5be 4c21 d43e acc0 30be 3028 253e
00000060: a1f5 1bbe 0c5a 2c3e ed70 99be e078 723d
00000070: a52e 36be 1aa9 0c3f 6862 733f 62b9 823d
00000080: f5fb 143f 4661 b9bd 3c8d 2bbd 62b6 233f
00000090: 5186 8abe 542f febc 46f3 3c3d 27e4 ed3c
000000a0: 5151 46bd 080f 24be a653 693d 9087 dcbe
000000b0: 3220 383e d1c7 443f 1ad7 24be 6b9e f63d
000000c0: 9641 57be fe6e 4dbf d0a6 fd3e e62b 09be
000000d0: 1701 003f 9113 94bd f907 e6bc eac7 a83e
000000e0: 8235 ce3e ea55 433e 498f dd3c fb14 93be
000000f0: b263 b03e 23ca 8ebd e6ec 29bf f53f c43e
00000100: bc71 023e 66a5 c63e ca2d f5bd 0239 1e3d
00000110: c9f7 f53e ee3b 493f 794d 3abe 23d2 97be
00000120: 03ed 8cbe b8ef 10bf 21c1 edbe 56bc e0be
00000130: 43d7 89be 1a34 8c3e 6d7c e23e 03d3 aa3e
00000140: c110 973e 9dfa 99be 8374 813e 4fb5 713e
00000150: e3a3 12bd 57b7 713e cf93 2c3f d9a7 753e
00000160: bd1f 4e3a c667 9fbc 2cb8 e33e c2b6 76bd
00000170: 63b5 103f 9f3a a7be 3a2a 053e 4c3d 7ebe
00000180: 315d cb3e b5ff 073f 2a6e 983e 29ca 903e
00000190: ce3b ee3e 2180 303f 1f19 3a3f 62f6 1a3f
000001a0: a32d 56bb 7fdf f53d 2ee7 b73e 7978 623e
000001b0: c1f9 e5be 2d07 8ebd 73ef 893e e474 39bf
000001c0: 027d 98be 4904 76be 445b c73e 5a48 21bd
000001d0: 09dc 11bf f752 883e ffc3 0b3f 91e8 053e
000001e0: bc98 64be 9f6a 20bf a6ec 393e 234f fa3d
000001f0: ca59 983e 20dc 93bd 247e 7bbe 50ec 93be
00000200: d515 32be 7242 763d f0f6 ca3e 00d5 de3e
00000210: 9996 a2be 43d0 bf3e eb70 f8be cb67 7ebc
00000220: a36e a9be 58f2 24be a818 41be a831 f73e
00000230: fe36 72bd 0323 a0be 5b5f 38bf 705b de3d
00000240: 6418 c0be d586 85bd cd93 94be 720d 55bf
00000250: 4083 113c 570c ec3d 8f99 f6be ccb5 b0bd
00000260: 60c4 a43d 1b4b 993e 1ec0 febd e888 05bf
00000270: 9d08 f13d 42df 11bc 2995 7b3e fa21 343e
00000280: fbba 833e 9f17 ea3d 0e21 9d3e 33a4 27bf
00000290: f608 8d3d 72a9 17be 1b07 5dbe 8e78 183d
000002a0: 136b 363e c628 13be c3ea 1abf f0ed a8bd
000002b0: dc0a dabe cf7d c4be 03d1 34be 0ddd 8fbd
000002c0: 29b9 973d 22c3 0ebe 94ec b93e ff4e cfbe
000002d0: b100 f4bd 5ae0 94bd eedc 873e 7b3b adbd
000002e0: 5289 a43e 5084 d5bb ed3b d3bc aeb6 edbc
000002f0: f807 63be fe23 9ebc 0b26 ccbe cb4d babe
00000300: 779b 6fbe 2a68 0b3e 11aa 49bf bf89 c33d
00000310: 3a32 943e 7894 4a3e c18f 1b3f 9cd2 da3e
00000320: 6ec8 283f 4e63 c4be 1f28 223e 7efa 013f
00000330: 70e6 09be 8228 4f3e d48c c43e ad19 66bd
00000340: ddb4 cf3d b183 2bbe be06 b43d 5ed4 2ebe
00000350: 4820 11bf f05d 4ebe aaf2 8bbe ca3b 67be
00000360: b673 06bf 5492 993b 60ec e13e 516e 93bc
00000370: 2352 c1bc 93fe c63e 5156 b2be 93a5 99be
00000380: 4b0b 34be aeb4 eebd 7797 8b3e 2ee3 833e
00000390: cfe7 a4be 7700 c2bd 9fdf b8bd 128b 98be
000003a0: 2b2a 2a3e 3849 613e 5bf3 a7bd b110 263f
000003b0: 40fd 493e 2d4a 803d c8b8 30be cd65 e13e
000003c0: b4fb 88be 8f9e 223d 5858 49be b2db 9a3d
000003d0: 0d4b f8bd 5f09 053c 4cec 133f 95d8 59bf
000003e0: 762e ecbd 7e44 99bd 1eab b63e 9159 afbe
000003f0: 7598 48be 97f3 263e e004 3bbe 0c18 bcbe

layer1.0.downsample.1.weight f4 [20]
1.1730586 1.3565085 1.1080832 1.3260592 1.1740708 0.84138453 0.94444513 0.89809346
1.1259766 1.3551626 1.1927674 1.2895347 1.2491733 0.8693433 0.99539775 0.93920344
1.2729611 1.1882966 1.2237034 0.9389308
00000000: c926 963f 12a2 ad3f acd5 8d3f 4fbc a93f
00000010: f447 963f fa64 573f 28c7 713f 74e9 653f
00000020: 0020 903f f875 ad3f 9aac 983f 790f a53f
00000030: e9e4 9f3f 488d 5e3f 63d2 7e3f a36f 703f
00000040: 64f0 a23f 1a1a 983f 50a2 9c3f c55d 703f

layer1.0.downsample.1.bias f4 [20]
0.09099104 0.40586478 -0.17473853 -0.01998398 -0.069606215 0.05517192 -0.025743634 -0.02685578
0.024591383 0.1399104 0.18190804 -0.030923722 0.10585083 -0.15026413 -0.008112256 -0.025129464
-0.12468312 0.24584337 0.11372566 -0.1752331
00000000: 8359 ba3d 82cd cf3e a8ee 32be 72b5 a3bc
00000010: b48d 8ebd f4fb 613d 50e4 d2bc a700 dcbc
00000020: de73 c93c ac44 0f3e 1a46 3a3e bf53 fdbc
00000030: 52c8 d83d d7de 19be 45e9 04bc 4edc cdbc
00000040: dd59 ffbd 5dbe 7b3e 00e9 e83d 4e70 33be

layer1.0.downsample.1.running_mean f4 [20]
0.9601931 0.5970339 1.1484315 0.4912271 -0.27695864 1.9760258 4.0502396 0.5852759
-0.5515269 -1.9461582 -0.2769766 -2.2000127 -1.4796951 2.2008457 -1.4958272 1.1445376
-1.7509474 1.72043 -0.9930576 0.53747827
00000000: 37cf 753f 37d7 183f ceff 923f 1e82 fb3e
00000010: 86cd 8dbe 6aee fc3f 909b 8140 a4d4 153f
00000020: de30 0dbf b61b f9bf e0cf 8dbe 02cd 0cc0
00000030: a666 bdbf a8da 0c40 4477 bfbf 3580 923f
00000040: 0b1f e0bf 0d37 dc3f 0639 7ebf 2d98 093f

layer1.0.downsample.1.running_var f4 [20]
1.6338506 0.42023993 1.104322 1.7255074 3.32632 3.4843612 8.8321495 1.454539
1.0239332 3.135531 0.8272765 1.0564617 1.1201864 2.1112618 1.297532 0.63887864
1.196748 3.0253396 2.0778239 1.2074181
00000000: 0422 d13f b029 d73e 6c5a 8d3f 6ddd dc3f
00000010: 6de2 5440 c6ff 5e40 7c50 0d41 552e ba3f
00000020: 3e10 833f 8aac 4840 65c8 533f 233a 873f
00000030: 4562 8f3f ea1e 0740 8715 a63f 8d8d 233f
00000040: 0a2f 993f 2a9f 4140 11fb 0440 ad8c 9a3f

layer1.1.conv1.weight f4 [20, 20, 3, 3]
-0.07573028 -0.07314356 -0.030657308 -0.2519128 -0.018434446 -0.09797339 0.023798697 0.017305084
-0.010238238 -0.2668205 -0.21360682 -0.21167704 0.014880159 0.18016323 -0.09847532 0.17883846
0.16014275 -0.009524557 -0.09501511 -0.1490747 -0.1888859 -0.1372382 -0.050887015 0.028435837
-0.13009265 0.037253268 0.16817623 -0.1532277 0.12069327 0.3505502 0.010751008 0.14505008
0.27205682 0.04221662 -0.16521622 0.14189607 0.054418016 -0.12626944 0.060217123 -0.21868575
-0.16162838 -0.09743431 -0.28075618 0.07552146 0.27578232 -0.12958436 -0.25108084 0.07171224
0.011617562 -0.018690987 0.10609054 -0.020587487 0.040876262 -0.05491713 -0.19048499 0.09316436
-0.099507086 0.020667715 0.10072342 -0.06292176 -0.13389722 -0.27123713 -0.23769337 -0.27247247
0.103439964 -0.108616546 0.08942929 0.035914276 0.13796178 -0.12972319 -0.11969953 0.23699273
-0.063721955 -0.22463074 -0.18501876 -0.02960869 -0.10009833 -0.031817287 -0.07664091 -0.16541287
-0.09170906 -0.15089023 -0.1673049 0.09112296 -0.093371026 -0.20191206 -0.062214315 -0.2289449
-0.2700638 -0.34958935 0.035944447 -0.21834607 0.065927655 0.060312647 0.27426806 0.0891181
0.022813741 0.00036709523 -0.24934255 -0.011646265 -0.25452927 -0.085894994 -0.03506516 -0.080479644
0.054619126 0.050279547 0.13332216 -0.1406813 -0.30772796 -0.43989035 -0.31672686 -0.20914188
0.09122263 -0.037619907 0.21105024 0.20399542 0.04012114 -0.16703053 -0.100736484 -0.08496595
-0.5129185 0.014738463 0.083827734 -0.069676176 -0.32010987 -0.19592687 -0.20292407 -0.38312045
-0.27815294 -0.32634148 -0.3078215 0.19847591 -0.20117335 -0.055618986 0.070203446 0.13442855
0.1670326 0.1740991 0.07385459 -0.033641063 -0.0797812 0.07551327 -0.104970165 0.108293116
0.00522801 -0.05676155 -0.15027632 0.12986727 -0.11436276 0.044944424 0.17391637 0.19188878
0.037568096 -0.41292998 -0.12147098 -0.5248488 -0.18412009 0.11154802 -0.17715545 -0.11873575
-0.072525345 -0.22369535 -0.07146716 -0.0091938395 -0.07006396 0.12864846 -0.06290653 0.22492921
-0.050568026 0.23526841 0.15502025 -0.12357558 -0.13615161 -0.06332907 -0.019008543 -0.26137754
0.14748658 -0.12963927 0.03898418 -0.0003036752 -0.06384934 0.32473114 0.14521617 -0.10436652
-0.049548324 -0.015158795 -0.1997961 -0.27299926 -0.33776602 0.12488372 -0.024616698 -0.19882736
-0.10687045 -0.3594019 -0.34613574 0.19367926 0.12147265 -0.03357562 0.08084558 -0.0960403
0.21055895 -0.014804168 0.12989625 0.16517566 0.03361541 0.14761133 -0.26970845 -0.26974142
-0.46542054 -0.38119346 -0.099409945 -0.0759054 -0.2741559 0.13978603 -0.054938678 -0.20355637
0.009226973 0.09261003 0.05260284 0.18041316 0.36978945 0.16092609 0.031313874 -0.09129484
-0.46864706 0.09272088 0.053604633 0.097098574 -0.107665814 -0.104280405 -0.113715135 -0.03039592
0.19482176 0.33113903 -0.106470674 -0.2595214 -0.1027908 0.056193773 -0.063686326 0.029608997
-0.15510505 -0.049791817 0.27018157 0.082376614 -0.19879997 -0.11253467 -0.0031299135 -0.05387025
-0.22888058 0.1297672 -0.18967679 -0.3030237 -0.045106802 0.10233609 0.44130552 -0.22696963
00000000: 7a18 9bbd 4acc 95bd 0925 fbbc b7fa 80be
00000010: d603 97bc 46a6 c8bd 7cf5 c23c 64c3 8d3c
00000020: 48be 27bc b29c 88be bfbb 5abe dec1 58be
00000030: e9cb 733c b67c 383e 6ead c9bd 6e21 373e
00000040: 76fc 233e e30c 1cbc 4897 c2bd 0aa7 18be
00000050: 4e6b 41be 2c88 0cbe e76e 50bd 46f2 e83c
00000060: 0237 05be e296 183d 6436 2c3e b9e7 1cbe
00000070: 082e f73d 517b b33e ff24 303c 0288 143e
00000080: 084b 8b3e 56eb 2c3d 712e 29be 344d 113e
00000090: 6de5 5e3d c74c 01be 3ba6 763d 28ef 5fbe
000000a0: e981 25be a48b c7bd 46bf 8fbe ffaa 9a3d
000000b0: 5733 8d3e c3b1 04be ab8d 80be dedd 923d
000000c0: 9657 3e3c d71d 99bc ff45 d93d 17a7 a8bc
000000d0: de6d 273d c9f0 60bd 7f0e 43be f5cc be3d
000000e0: 5fca cbbd 574f a93c 1548 ce3d 20dd 80bd
000000f0: 5a1c 09be 98df 8abe e465 73be 8381 8bbe
00000100: 55d8 d33d 5a72 debd b426 b73d d91a 133d
00000110: da45 0d3e 28d6 04be 0725 f5bd 39ae 723e
00000120: a880 82bd 9a05 66be 8f75 3dbe ec8d f2bc
00000130: 5a00 cdbd d852 02bd e9f5 9cbd fe61 29be
00000140: f6d1 bbbd f882 1abe fa51 2bbe ad9e ba3d
00000150: 4f39 bfbd 09c2 4ebe 70d4 7ebd 8870 6abe
00000160: cd45 8abe 60fd b2be 7c3a 133d 1d96 5fbe
00000170: 1405 873d 650a 773d dd6c 8c3e 8d83 b63d
00000180: e2e3 ba3c b076 c039 a753 7fbe facf 3ebc
00000190: a951 82be b7e9 afbd 7ca0 0fbd 83d2 a4bd
000001a0: 4eb8 5f3d edf1 4d3d 9b85 083e c20e 10be
000001b0: 858e 9dbe 4f39 e1be 062a a2be 4a29 56be
000001c0: eed2 ba3d 5517 1abd 8e1d 583e 2de4 503e
000001d0: 1156 243d 0d0a 2bbe ee4e cebd a102 aebd
000001e0: a04e 03bf 9879 713c e0ad ab3d 62b2 8ebd
000001f0: 71e5 a3be 0ea1 48be 54cb 4fbe 5d28 c4be
00000200: 106a 8ebe 3b16 a7be c89a 9dbe 453d 4b3e
00000210: 6300 4ebe bcd0 63bd d3c6 8f3d a3a7 093e
00000220: 980a 2b3e 0947 323e 1341 973d 36cb 09bd
00000230: 5364 a3bd b4a6 9a3d 99fa d6bd c8c8 dd3d
00000240: ba4f ab3b cd7e 68bd 09e2 19be edfb 043e
00000250: 0637 eabd a517 383d 2217 323e 7e7e 443e
00000260: 01e1 193d 8f6b d3be c7c5 f8bd 7e5c 06bf
00000270: fa89 3cbe 4a73 e43d 3d68 35be bb2b f3bd
00000280: 2b88 94bd 6510 65be 605d 92bd c2a1 16bc
00000290: b27d 8fbd 6cbc 033e 24d5 80bd d853 663e
000002a0: 6b20 4fbd 34ea 703e a1bd 1e3e 3215 fdbd
000002b0: 546b 0bbe acb2 81bd ceb7 9bbc 47d3 85be
000002c0: b906 173e 28c0 04be e0ad 1f3d 9836 9fb9
000002d0: 71c3 82bd 2943 a63e 8cb3 143e 1dbe d5bd
000002e0: 2ff3 4abd 985c 78bc 5997 4cbe 8fc6 8bbe
000002f0: abef acbe 09c3 ff3d f5a8 c9bc 6699 4bbe
00000300: e5de dabd 8703 b8be b438 b1be db53 463e
00000310: a7c6 f83d 9786 09bd 5e92 a53d c7b0 c4bd
00000320: c49c 573e 2e8d 72bc 8603 053e cf23 293e
00000330: 50b0 093d 6d27 173e 3a17 8abe 8c1b 8abe
00000340: 9a4b eebe ca2b c3be 7197 cbbd 4a74 9bbd
00000350: 2a5e 8cbe 1224 0f3e 6107 61bd 1571 50be
00000360: bb2c 173c 54aa bd3d 1376 573d 3abe 383e
00000370: 0b55 bd3e cfc9 243e fa42 003d caf8 babd
00000380: 82f2 efbe 72e4 bd3d 8890 5b3d 9edb c63d
00000390: e57f dcbd f790 d5bd 7be3 e8bd dd00 f9bc
000003a0: 5b7f 473e 0e8b a93e 4c0d dabd fddf 84be
000003b0: fc83 d2bd 712b 663d fa6d 82bd 918e f23c
000003c0: dcd3 1ebe 81f2 4bbd 3d55 8a3e 12b5 a83d
000003d0: 3892 4bbe 9478 e6bd 3c1f 4dbb 0da7 5cbd
000003e0: ac5f 6abe b1e1 043e a23a 42be ec25 9bbe
000003f0: e9c1 38bd 9595 d13d ccf2 e13e ba6a 68be

layer1.1.bn1.weight f4 [20]
0.9578684 1.0846708 0.82527345 0.8227828 1.0390769 1.1475514 1.2079029 1.0193892
0.8226931 0.95248073 1.1315491 1.0479355 1.0713682 1.102023 1.0587617 1.0986451
1.0009924 1.022537 0.9434199 0.9130335
00000000: dd36 753f 7ed6 8a3f 1f45 533f e5a1 523f
00000010: 7900 853f f7e2 923f 909c 9a3f 587b 823f
00000020: 049c 523f c7d5 733f 9ad6 903f c022 863f
00000030: 9822 893f 170f 8d3f 8185 873f 67a0 8c3f
00000040: 8520 803f 7ee2 823f f783 713f 90bc 693f

layer1.1.bn1.bias f4 [20]
0.06202286 -0.09333131 -0.38139305 -0.26147065 -0.179343 -0.13623786 -0.124667995 -0.10074981
-0.50425184 0.07978127 -0.07931427 -0.07938585 -0.1804041 -0.09498037 -0.026882114 -0.074226156
-0.4029852 -0.24204722 -0.30851626 -0.22791648
00000000: af0b 7e3d 7c24 bfbd f345 c3be 7bdf 85be
00000010: b1a5 37be f081 0bbe ef51 ffbd eb55 cebd
00000020: a616 01bf 5d64 a33d 856f a2bd 0c95 a2bd
00000030: dabb 38be 1185 c2bd e137 dcbc e203 98bd
00000040: 1354 cebe 3adb 77be d8f5 9dbe f062 69be

layer1.1.bn1.running_mean f4 [20]
-4.1884193 -0.68018585 -2.6297162 1.764058 -0.15155971 0.6346495 0.82424736 -0.22538765
1.9905152 -1.205836 1.1769464 -2.8881893 0.83168966 1.1692227 3.2946637 1.0275322
3.0816493 -3.4267302 0.044033434 0.01087634
00000000: 8807 86c0 a920 2ebf 454d 28c0 a7cc e13f
00000010: 7832 1bbe 6478 223f e001 533f 05cc 66be
00000020: 34c9 fe3f d658 9abf 2ea6 963f 18d8 38c0
00000030: 9de9 543f 17a9 953f c5db 5240 2d86 833f
00000040: be39 4540 8c4f 5bc0 675c 343d ad32 323c

layer1.1.bn1.running_var f4 [20]
10.204996 7.360647 6.324605 8.054629 9.558786 9.161934 6.8616734 10.158421
6.307701 9.717227 6.7856097 7.2715626 8.05486 8.618127 8.31433 7.4580297
9.566724 12.864861 7.448254 5.653077
00000000: aa47 2341 6c8a eb40 2a63 ca40 c3df 0041
00000010: caf0 1841 4897 1241 d492 db40 e488 2241
00000020: b0d8 c940 c379 1b41 b723 d940 a4b0 e840
00000030: b5e0 0041 d9e3 0941 7f07 0541 2ea8 ee40
00000040: 4d11 1941 78d6 4d41 1958 ee40 02e6 b440

layer1.1.conv2.weight f4 [20, 20, 3, 3]
0.016078882 -0.059563298 -0.13989222 -0.015502741 0.04276842 -0.07433034 0.072899394 -0.020173976
-0.08991535 -0.14259513 -0.1683781 -0.1985782 -0.044315577 0.08135015 -0.10693962 -0.0012604673
0.15398274 0.15090775 0.061609466 -0.06669429 -0.2526348 -0.10366304 0.06645151 -0.4425615
-0.028066125 -0.04250962 0.05232278 0.020422652 -0.09764191 -0.10203858 0.19331102 -0.020429514
-0.24537857 -0.29927135 -0.2594902 -0.18694964 0.0020805509 0.18294229 0.13494396 -0.034332916
-0.28124872 -0.09402484 0.06484025 -0.01001086 0.09654434 -0.035058595 -0.17748664 -0.11266798
0.044400666 -0.21974291 -0.12944378 0.29961902 0.12362612 -0.04235648 -0.09492643 -0.22108914
0.033290748 -0.14595637 -0.08045026 0.043118794 0.13031271 -0.22699217 0.09400966 -0.02889929
0.04103116 0.07493891 -0.08645574 -0.035924822 -0.124535 -0.11077946 -0.019311061 -0.05432085
0.018547138 -0.0678715 -0.031040216 -0.06964819 -0.06922429 -0.033634383 -0.07048739 -0.24957336
-0.105610214 -0.11832159 0.19904193 0.066504985 -0.02492772 -0.06366467 0.020048926 0.29194716
0.23356941 -0.086320005 -0.0037063437 -0.1300871 -0.25525662 -0.040329054 -0.043607347 -0.27997333
-0.08110842 -0.26082364 -0.23998895 -0.25412455 -0.45539674 -0.15424247 0.040191647 -0.03734602
0.046391465 0.13874602 0.09089696 0.27045918 -0.17029847 -0.27046397 -0.04608312 0.09503839
-0.3479815 -0.4632929 0.34084323 -0.10082706 -0.16404168 0.2915389 0.03661861 0.026472956
0.005682558 -0.024501443 -0.14834708 0.024734622 0.16017202 -0.28770575 0.18518357 0.22537501
0.078471854 0.18081948 0.13326925 -0.04596351 -0.03984697 -0.038031027 -0.073454574 -0.076216064
-0.38584015 -0.16618177 -0.20457847 -0.14013061 -0.15301873 -0.090735324 0.056333438 -0.24307115
-0.26586527 -0.067624226 -0.16256082 -0.41328144 -0.19333696 -0.027026001 -0.2214511 -0.3737667
-0.01289224 -0.1703528 -0.33467007 -0.29084367 0.071599744 -0.22544043 -0.038745362 0.1506219
-0.013871412 -0.1839486 0.24509984 0.39580607 0.02462758 0.11600587 0.22476377 -0.22632068
-0.038208254 0.05158071 -0.13846266 0.13288711 -0.1378349 -0.16009927 -0.038857557 -0.35658616
-0.2721919 -0.10405841 -0.30265582 -0.05879581 -0.2236183 -0.04161275 0.0066026035 -0.029496286
-0.08723985 0.008618692 0.14265971 0.008689985 0.008418105 0.0003247423 -0.2302292 0.15709887
0.23605181 -0.21534246 -0.14298697 0.06881083 -0.17349213 0.15516463 -0.13440725 -0.18795401
-0.13765274 -0.09363717 0.0128200585 -0.2832973 -0.16176525 0.32517084 -0.2244054 0.100297384
-0.18494543 0.26370314 0.1518424 -0.20000929 -0.1696341 0.030477706 -0.14382374 -0.2940724
-0.3071397 -0.009661085 0.29946554 -0.08553249 -0.3398129 -0.2175061 0.52573407 -0.1885696
-0.4215351 0.09732094 0.27333558 -0.21478352 -0.009045592 0.29144144 0.031697035 -0.5252609
0.31628528 0.02104316 0.06251092 -0.34574783 -0.4830445 0.21102372 -0.31687492 -0.26201224
0.046849437 0.20064193 -0.019052124 -0.025253898 -0.09362956 0.18114147 0.2546942 -0.087194055
-0.20113862 0.082636505 -0.10274335 -0.4339357 0.022129657 0.045841824 0.2954738 -0.028381445
00000000: dcb7 833c a5f8 73bd e83f 0fbe 35ff 7dbc
00000010: f02d 2f3d 813a 98bd 474c 953d e543 a5bc
00000020: 8a25 b8bd 7504 12be 4f6b 2cbe 1558 4bbe
00000030: 4084 35bd e89a a63d 2903 dbbd 4436 a5ba
00000040: a7ad 1d3e 9087 1a3e 355a 7c3d 0497 88bd
00000050: 5959 81be 4a4d d4bd bb17 883d 6c97 e2be
00000060: eeea e5bc 911e 2ebd 6950 563d 684d a73c
00000070: 7bf8 c7bd 9af9 d0bd 53f3 453e cc5b a7bc
00000080: 8544 7bbe 183a 99be e6db 84be ba6f 3fbe
00000090: da59 083b 3955 3b3e c02e 0a3e aca0 0cbd
000000a0: d5ff 8fbe 1890 c0bd f7ca 843d 9704 24bc
000000b0: 0ab9 c53d 9a99 0fbd 0fbf 35be 78be e6bd
000000c0: 79dd 353d 4904 61be e98c 04be aa67 993e
000000d0: b12f fd3d fd7d 2dbd ca68 c2bd 3165 62be
000000e0: e15b 083d 9675 15be 1bc3 a4bd 559d 303d
000000f0: b270 053e a370 68be 2388 c03d 34be ecbc
00000100: 4a10 283d 9279 993d b50f b1bd e825 13bd
00000110: 350c ffbd 57e0 e2bd 3b32 9ebc 8a7f 5ebd
00000120: 2bf0 973c 3700 8bbd 0d48 febc b6a3 8ebd
00000130: 77c5 8dbd 35c4 09bd b15b 90bd 2990 7fbe
00000140: 2b4a d8bd 9752 f2bd a6d1 4b3e c433 883d
00000150: 3835 ccbc 9f62 82bd a53d a43c 197a 953e
00000160: d22c 6f3e 8bc8 b0bd 21e6 72bb 8e35 05be
00000170: ffb0 82be 1430 25bd 9e9d 32bd aa58 8fbe
00000180: 2c1c a6bd ad8a 85be aabf 75be 9d1c 82be
00000190: c329 e9be bdf1 1dbe ff9f 243d 24f8 18bd
000001a0: fa04 3e3d 7013 0e3e 2f28 ba3d a079 8a3e
000001b0: b962 2ebe 417a 8abe a7c1 3cbd 7da3 c23d
000001c0: a22a b2be ba34 edbe 0183 ae3e 6b7e cebd
000001d0: 8bfa 27be 9644 953e 65fd 153d d0dd d83c
000001e0: c034 ba3b 40b7 c8bc 4ce8 17be 43a0 ca3c
000001f0: 2204 243e 2b4e 93be c3a0 3d3e b5c8 663e
00000200: dab5 a03d be28 393e bc77 083e 3c44 3cbd
00000210: 9436 23bd 6cc6 1bbd 5a6f 96bd 2b17 9cbd
00000220: d78c c5be 8e2b 2abe 057d 51be 667e 0fbe
00000230: f1b0 1cbe 71d3 b9bd e4bd 663d a5e7 78be
00000240: 7e1f 88be 927e 8abd 5876 26be a099 d3be
00000250: 20fa 45be a265 ddbc 14c4 62be 595e bfbe
00000260: f939 53bc f770 2ebe e059 abbe 76e9 94be
00000270: e3a2 923d dbd9 66be 75b3 1ebd a13c 1a3e
00000280: eb44 63bc 065d 3cbe 74fb 7a3e 18a7 ca3e
00000290: c7bf c93c 7c94 ed3d 7928 663e 9cc0 67be
000002a0: 4280 1cbd 4b46 533d 28c9 0dbe 8f13 083e
000002b0: 9824 0dbe 10f1 23be 1a29 1fbd 7692 b6be
000002c0: bd5c 8bbe 931c d5bd b4f5 9abe e0d3 70bd
000002d0: 32fc 64be 2272 2abd a75a d83b 32a2 f1bc
000002e0: ceaa b2bd 6a35 0d3c 6315 123e 7060 0e3c
000002f0: 17ec 093c 2c42 aa39 34c1 6bbe 87de 203e
00000300: 91b7 713e bc82 5cbe 2d6b 12be b1ec 8c3d
00000310: eca7 31be 7ae3 1e3e 0ea2 09be 0477 40be
00000320: d7f4 0cbe d8c4 bfbd 390b 523c 580c 91be
00000330: caa5 25be cb7c a63e 87ca 65be b768 cd3d
00000340: 5662 3dbe 1904 873e 937c 1b3e 3ccf 4cbe
00000350: 90b4 2dbe 62ac f93c 8846 13be a890 96be
00000360: 6a41 9dbe 8749 1ebc 8c53 993e a82b afbd
00000370: f5fb adbe ebb9 5ebe 8296 063f 6418 41be
00000380: 73d3 d7be 3350 c73d a4f2 8b3e 36f0 5bbe
00000390: f633 14bc d037 953e c0d4 013d 8077 06bf
000003a0: 25f0 a13e b562 ac3c ba05 803d dc05 b1be
000003b0: 9c51 f7be 9a16 583e 6e3d a2be 7826 86be
000003c0: 32e5 3f3d 1475 4d3e 3313 9cbc 43e1 cebc
000003d0: dbc0 bfbd 267d 393e 4767 823e cc92 b2bd
000003e0: 48f7 4dbe 543d a93d 1b6b d2bd d22c debe
000003f0: 4149 b53c a3c4 3b3d 5848 973e 3480 e8bc

layer1.1.bn2.weight f4 [20]
0.90378916 0.8377391 0.7946867 0.8612095 0.6839788 0.8100557 1.0356519 1.1553885
0.8102722 1.0169313 0.9338873 0.836676 0.80748284 0.68461365 1.1687529 0.8756948
0.6528013 1.1696534 0.950759 0.80649376
00000000: ba5e 673f 1276 563f 9670 4b3f 3a78 5c3f
00000010: 3c19 2f3f cf5f 4f3f 3e90 843f c5e3 933f
00000020: 006e 4f3f ce2a 823f 3d13 6f3f 6630 563f
00000030: 32b7 4e3f d742 2f3f b299 953f 892d 603f
00000040: fc1d 273f 34b7 953f f164 733f 6076 4e3f

layer1.1.bn2.bias f4 [20]
0.025677467 -0.14798522 0.13541363 -0.20281056 -0.11035235 0.04457985 0.18566436 -0.08139228
-0.13709427 0.16481669 0.029460717 -0.048815724 -0.10314906 -0.10532291 0.15272836 -0.2584528
-0.33055514 0.021789849 0.2966041 -0.03061357
00000000: 8d59 d23c 7089 17be dfa9 0a3e 92ad 4fbe
00000010: 6a00 e2bd 5c99 363d cc1e 3e3e ffb0 a6bd
00000020: 7162 0cbe b5c5 283e 9a57 f13c fff2 47bd
00000030: d03f d3bd 8ab3 d7bd d364 1c3e ed53 84be
00000040: 863e a9be a080 b23c 7edc 973e 4fc9 fabc

layer1.1.bn2.running_mean f4 [20]
-2.4726 -0.57900274 0.1799979 2.4019291 0.65968764 0.025445161 0.30495968 -0.112166174
-2.5856905 -2.2700765 1.453784 -0.4927049 -0.7119067 0.94218254 0.6331617 -2.5528655
2.3322537 -1.1953588 0.34337926 1.5026621
00000000: 143f 1ec0 8639 14bf 5f51 383e 35b9 1940
00000010: 4ae1 283f 5f72 d03c ad23 9c3e 61b7 e5bd
00000020: f47b 25c0 ef48 11c0 9815 ba3f d143 fcbe
00000030: 843f 36bf e032 713f e316 223f 2662 23c0
00000040: a543 1540 8401 99bf 68cf af3e 3b57 c03f

layer1.1.bn2.running_var f4 [20]
5.226327 3.3934076 2.9572046 6.82886 3.2631903 2.6412213 3.650816 3.1192322
3.8983023 4.936214 4.8390512 4.681792 3.5545774 2.8204308 5.704702 5.539163
5.8859334 4.3403625 3.696813 3.6083353
00000000: 123e a740 972d 5940 d742 3d40 0586 da40
00000010: 1cd8 5040 c509 2940 f8a6 6940 80a1 4740
00000020: c97d 7940 77f5 9d40 82d9 9a40 3dd1 9540
00000030: 327e 6340 f081 3440 eb8c b640 d340 b140
00000040: 9159 bc40 40e4 8a40 9698 6c40 f7ee 6640
