best_model_cln.pt (torch, 200701 bytes, 140 tensors)

conv1.weight f4 [7, 1, 3, 3]
0.27916414 -0.06164122 -0.3341402 0.15426014 -0.12651658 -0.19162402 0.13276848 0.13955395
-0.009063004 -0.11531631 0.08197009 -0.27984238 -0.07682028 -0.23257984 -0.22372995 -0.49324206
0.13600741 0.37607813 0.13922511 0.27304998 0.16207771 0.16447628 0.11048916 0.14454424
0.096766606 0.027938826 -0.54825133 0.025876662 0.23597018 0.23365074 0.14771967 0.031058393
0.16397823 0.112123884 0.16983005 0.2150163 -0.0037509336 0.059530087 -0.39767614 0.24434592
0.21732824 -0.08914255 -0.2245124 0.3077912 0.13908052 -0.012876812 0.16761011 -0.027436811
-0.25649562 0.0623236 0.32850948 -0.0951474 -0.09054299 0.15897281 0.38880843 0.37492093
0.13606273 0.119182535 0.0743112 0.22687814 -0.20156543 0.41949898 0.12629852
00000000: 9aee 8e3e 817b 7cbd 6d14 abbe 5ff6 1d3e
00000010: 908d 01be 1639 44be 76f4 073e 3be7 0e3e
00000020: fe7c 14bc f52a ecbd efdf a73d 8047 8fbe
00000030: f353 9dbd 6929 6ebe 7719 65be 398a fcbe
00000040: 8745 0b3e 508d c03e 0791 0e3e 35cd 8b3e
00000050: b3f7 253e 786c 283e 2448 e23d 6803 143e
00000060: 922d c63d f7df e43c 335a 0cbf 4bfb d33c
00000070: 2ba2 713e 2442 6f3e d343 173e 2c6e fe3c
00000080: e9e9 273e 35a1 e53d eee7 2d3e 3c2d 5c3e
00000090: 39d2 75bb d2d5 733d 359c cbbe d135 7a3e
000000a0: 4b8b 5e3e 5f90 b6bd 94e6 65be cf96 9d3e
000000b0: 206b 0e3e 44f9 52bc fca1 2b3e 2ac3 e0bc
000000c0: 6553 83be 0847 7f3d 6532 a83e a4dc c2bd
000000d0: 9a6e b9bd c5c9 223e e611 c73e a3f5 bf3e
000000e0: 0754 0b3e f915 f43d 7830 983d be52 683e
000000f0: 2b67 4ebe 92c8 d63e 6654 013e

conv1.bias f4 [7]
-0.06737525 0.04253872 0.3682846 0.22125135 0.58383393 0.4015352 0.083132885
00000000: 09fc 89bd 153d 2e3d cd8f bc3e b78f 623e
00000010: 2476 153f 0696 cd3e 9341 aa3d

bn1.weight f4 [7]
1.1849245 1.2623775 0.8734956 0.8502913 0.79622287 0.9202158 0.897006
00000000: 9bab 973f 9695 a13f 689d 5f3f b1ac 593f
00000010: 43d5 4b3f 4393 6b3f 2fa2 653f

bn1.bias f4 [7]
0.2619193 -0.16119383 0.92632264 0.4358755 0.30880627 0.7721572 0.17110732
00000000: 491a 863e ff0f 25be 7b23 6d3f 132b df3e
00000010: db1b 9e3e 18ac 453f c236 2f3e

bn1.running_mean f4 [7]
-0.061611615 0.0904383 0.37220082 0.22491264 0.5784586 0.3906001 0.08346401
00000000: 765c 7cbd b737 b93d 1b91 be3e 804f 663e
00000010: dd15 143f bcfc c73e 2eef aa3d

bn1.running_var f4 [7]
0.22473267 1.5521148 1.1182295 3.8441422 0.3535749 0.23285507 6.0277944
00000000: 5220 663e b3ab c63f 2522 8f3f 6d06 7640
00000010: c507 b53e 8f71 6e3e b1e3 c040

layer1.0.conv1.weight f4 [7, 7, 3, 3]
-0.17306712 0.213851 0.2609529 0.14911361 -0.051765297 -0.16749673 0.04123306 -0.15861923
-0.3185503 0.017062569 -0.27992386 -0.14464852 -0.044471633 -0.0009799472 -0.015311634 0.42271063
0.17296937 0.15605031 0.30762976 0.35332936 -0.100457296 0.27820373 0.25955227 -0.09008555
-0.053948097 -0.6142479 0.17328016 0.013929447 -0.011646924 -0.059887316 -0.025724746 0.18907306
-0.21403591 -0.082711525 -0.18358321 -0.06514706 0.16772662 -0.07932145 0.026014721 -0.005786647
-0.2003897 -0.39096913 0.11690212 0.08929373 -0.044969134 0.34422052 0.22495268 -0.013627652
-0.12730621 -0.2985734 0.33927083 -0.5433021 -0.048198465 -0.10348085 0.33329067 0.37995014
-0.23494712 0.2350214 0.27421945 -0.1765353 -0.19538869 -0.1449063 -0.15489635 0.044896007
0.027823634 -0.0044520446 -0.12485695 -0.0045504128 0.1905536 0.069394365 -0.0021688663 -0.11770038
0.19423367 0.052674223 -0.067701876 -0.05937847 -0.48237532 -0.37326208 -0.55273867 0.08262467
-0.398694 -0.09605664 -0.04895541 -0.19629832 -0.119398266 -0.041942503 0.11933046 0.20732029
0.00050190056 -0.27789244 0.4098406 0.1566687 -0.2360427 0.33145908 -0.2973443 -0.30628055
-0.06613834 0.022450203 -0.08658908 0.2216253 0.2983387 0.23473099 0.33315453 0.20552647
-0.08010581 0.20349003 -0.062440388 0.23308179 0.21764567 -0.40208372 0.2624529 -0.00665451
-0.31083912 0.28266004 -0.22535136 -0.5113472 -0.12131196 0.12712735 0.001245854 0.25587642
0.14133607 -0.2407643 -0.09295894 -0.1311785 0.013669652 -0.18431629 0.027875992 -0.03577348
-0.050831355 -0.08051658 0.020784676 -0.44765574 0.16066803 0.108586885 -0.49733722 -0.3845545
0.15156431 -0.051611952 0.22577938 0.62596977 0.097207025 0.6131885 0.6579236 0.27580026
0.23732573 -0.013495865 0.06240747 -0.09117756 -0.32086378 -0.14443873 -0.37020135 -0.5295623
-0.21461897 -0.08474615 -0.011439984 -0.41686252 0.1815631 0.08745328 -0.28876615 -0.010594316
0.51762575 0.014825918 -0.09559553 0.15155862 -0.26085848 0.07283093 -0.10089607 -0.07545102
0.037208654 0.46917608 0.095054545 0.1491847 0.02063675 0.13884906 -0.06939067 0.093155034
0.1187812 -0.16881704 -0.08501745 -0.17838189 -0.16386385 -0.019823892 0.09227704 0.13132639
0.23440509 0.0052331537 0.19520734 0.21799651 0.39163718 0.21333376 0.13054359 -0.025665885
0.17917988 0.044278022 0.20753956 -0.29422542 0.18123502 0.17504515 0.072079934 -0.38630176
0.19801058 0.1203884 0.19692029 -0.26045898 -0.017482763 -0.30179727 0.23137212 -0.4181574
-0.3408273 0.059527464 -0.19711502 0.10912177 0.25438043 0.269101 0.3333266 0.31385285
-0.14002478 0.04528161 -0.23175107 0.2328622 0.3353308 0.34800437 0.25560638 0.049499393
0.47656685 -0.16956145 -0.1934447 0.12894675 -0.063583724 -0.072941035 0.14366008 0.19336753
0.049066555 -0.31792077 0.023775674 -0.10591098 0.14049925 0.41061777 -0.1306993 -0.39553884
0.29042497 -0.014297522 -0.50889736 -0.2617127 -0.34595686 -0.16655856 -0.17882654 -0.3053556
0.17259793 0.21505739 0.345051 0.24231653 0.13369326 -0.20818606 -0.40215495 -0.03146289
00000000: 8238 31be c2fb 5a3e 9e9b 853e 3db1 183e
00000010: d907 54bd 4384 2bbe ffe3 283d 146d 22be
00000020: 0619 a3be cdc6 8b3c 2e52 8fbe be1e 14be
00000030: e327 36bd 9271 80ba a6dd 7abc 876d d83e
00000040: e21e 313e a7cb 1f3e a681 9d3e 96e7 b43e
00000050: 8ebc cdbd b870 8e3e 09e4 843e c67e b8bd
00000060: aef8 5cbd 5a3f 1dbf 5b70 313e 5638 643c
00000070: bdd2 3ebc 674c 75bd b4bc d2bc 5e9c 413e
00000080: 3b2c 5bbe a964 a9bd 3dfd 3bbe d26b 85bd
00000090: 87c0 2b3e 4973 a2bd d31c d53c ea9d bdbb
000000a0: f532 4dbe 1b2d c8be 616a ef3d a2df b63d
000000b0: 8e31 38bd ac3d b03e ff59 663e 8446 5fbc
000000c0: 8f5c 02be 9dde 98be e8b4 ad3e d915 0bbf
000000d0: c16b 45bd c5ed d3bd 13a5 aa3e d388 c23e
000000e0: fa95 70be 73a9 703e 7e66 8c3e abc5 34be
000000f0: f913 48be 5162 14be 269d 1ebe e0e4 373d
00000100: 64ee e33c 75e2 91bb 00b5 ffbd a11b 95bb
00000110: 7c20 433e a21e 8e3d 8a23 0ebb e60c f1bd
00000120: 31e5 463e edc0 573d 48a7 8abd d736 73bd
00000130: e6f9 f6be 351c bfbe 4880 0dbf 1f37 a93d
00000140: 9f21 ccbe 58b9 c4bd 7885 48bd 6d02 49be
00000150: 1487 f4bd e7cb 2bbd 8763 f43d c54b 543e
00000160: fa91 033a eb47 8ebe a1d6 d13e c26d 203e
00000170: 2db5 71be 01b5 a93e 833d 98be ced0 9cbe
00000180: 8a73 87bd 7de9 b73c 9e55 b1bd bef1 623e
00000190: dabf 983e 525d 703e 3b93 aa3e 8875 523e
000001a0: 840e a4bd b15f 503e 7ec1 7fbd feac 6e3e
000001b0: 82de 5e3e ebdd cdbe 3a60 863e 130e dabb
000001c0: 4e26 9fbe d1b8 903e 82c2 66be a6e7 02bf
000001d0: 6872 f8bd ac2d 023e ec4b a33a 3c02 833e
000001e0: 67ba 103e eb8a 76be 4261 bebd a853 06be
000001f0: adf6 5f3c 69bd 3cbe 315c e43c 3687 12bd
00000200: 8a34 50bd e0e5 a4bd a044 aa3c 2233 e5be
00000210: 2986 243e cd62 de3d fca2 febe 54e4 c4be
00000220: ad33 1b3e 0e67 53bd b632 673e 8e3f 203f
00000230: 7a14 c73d ecf9 1c3f ae6d 283f b135 8d3e
00000240: 8405 733e c31d 5dbc fa9e 7f3d 4dbb babd
00000250: 4248 a4be bfe7 13be 088b bdbe 6591 07bf
00000260: 13c5 5bbe 648f adbd c56e 3bbc 016f d5be
00000270: adeb 393e b51a b33d 28d9 93be c893 2dbc
00000280: 1f83 043f 68e8 723c 97c7 c3bd 2f32 1b3e
00000290: 3e8f 85be 6228 953d 99a2 cebd 1086 9abd
000002a0: 1a68 183d d937 f03e f5ab c23d e0c3 183e
000002b0: 670e a93c 732e 0e3e b21c 8ebd 11c8 be3d
000002c0: 8f43 f33d 60de 2cbe a11d aebd bea9 36be
000002d0: edcb 27be b765 a2bc bffb bc3d 6d7a 063e
000002e0: e307 703e e07a ab3b 6fe4 473e 7a3a 5f3e
000002f0: ab84 c83e 2a74 5a3e 38ad 053e 4341 d2bc
00000300: ee7a 373e df5c 353d 4085 543e b7a4 96be
00000310: ac95 393e 093f 333e a59e 933d 58c9 c5be
00000320: 49c3 4a3e 328e f63d 79a5 493e e15a 85be
00000330: 0338 8fbc 2c85 9abe d0ec 6c3e ba18 d6be
00000340: ea80 aebe 12d3 733d 85d8 49be 3c7b df3d
00000350: 273e 823e 9bc7 893e c9a9 aa3e 52b1 a03e
00000360: a862 0fbe 3679 393d 2750 6dbe 6e73 6e3e
00000370: 7bb0 ab3e a12d b23e d7de 823e e0bf 4a3d
00000380: 9200 f43e 84a1 2dbe 5e16 46be 9e0a 043e
00000390: 2f38 82bd 1c62 95bd a11b 133e 2302 463e
000003a0: 03fa 483d 83c6 a2be 34c5 c23c dbe7 d8bd
000003b0: 09df 0f3e 7e3c d23e 0ad6 05be 1184 cabe
000003c0: 95b2 943e 2740 6abc 1947 02bf 35ff 85be
000003d0: 4221 b1be 548e 2abe 4e1e 37be 9257 9cbe
000003e0: 83bd 303e 0138 5c3e 86aa b03e d321 783e
000003f0: e3e6 083e ba2e 55be 41e7 cdbe 3bdf 00bd

layer1.0.conv1.bias f4 [7]
-0.21844003 0.27369773 -0.4474269 0.326916 -0.4990545 0.50303864 0.67786294
00000000: beae 5fbe 1c22 8c3e 2315 e5be 8961 a73e
00000010: 1284 ffbe 24c7 003f 6d88 2d3f

layer1.0.bn1.weight f4 [7]
1.0012436 0.6919316 1.021051 0.9477051 1.1004099 0.8552719 1.0643336
00000000: c028 803f 6e22 313f cdb1 823f cd9c 723f
00000010: 3bda 8c3f 19f3 5a3f 153c 883f

layer1.0.bn1.bias f4 [7]
0.40941998 -0.113545105 -0.27935117 0.48649356 -0.27115485 -0.04139114 -0.25041413
00000000: 7f9f d13e 568a e8bd 1e07 8fbe af15 f93e
00000010: cfd4 8abe c289 29bd 4836 80be

layer1.0.bn1.running_mean f4 [7]
-0.2382123 -0.8997846 -0.9776242 1.608989 -2.6006536 -1.7983648 -1.6956809
00000000: eded 73be 4958 66bf 9445 7abf 5af3 cd3f
00000010: 1c71 26c0 d130 e6bf 120c d9bf

layer1.0.bn1.running_var f4 [7]
2.8988674 1.9537679 3.6487248 4.1199675 3.969992 3.29096 7.654985
00000000: 0b87 3940 1115 fa3f b584 6940 c6d6 8340
00000010: 5914 7e40 179f 5240 a3f5 f440

layer1.0.conv2.weight f4 [7, 7, 3, 3]
-0.20699255 0.041187115 -0.093603685 0.08077152 0.02739791 -0.19503985 0.08492099 0.38880888
-0.067883946 -0.084854096 -0.13149194 -0.13610001 0.04183523 -0.026299937 -0.216245 0.14266902
-0.05316712 0.07921884 -0.15515535 0.0082509015 0.18298316 -0.11446406 0.06587292 0.0032059117
-0.23175092 0.15521225 -0.09561668 -0.11876393 -0.3853603 -0.028592221 -0.26456922 -0.37407646
0.15744106 -0.23977436 -0.2071543 -0.05653592 -0.58710086 -0.31903434 -0.08176407 -0.3381349
-0.0023353002 -0.041221227 -0.43580005 0.1389344 0.41350958 0.14734578 -0.24343085 -0.099025466
-0.038113475 0.00093944423 -0.22260803 0.025071504 0.008735155 -0.027948633 -0.03996631 0.17509599
-0.053324144 -0.2887865 -0.17787379 0.12608075 0.112797216 0.3621668 0.28411275 -0.056588583
-0.04444071 0.15151805 0.004170625 0.02938252 -0.047645967 -0.20318416 -0.78174317 -0.010083837
0.2020997 -0.020987382 -0.05515488 0.35583767 0.27598473 -0.41969928 -0.1553687 -0.48318326
0.18902491 0.10635327 0.052870244 0.2418225 -0.014430053 -0.008891904 -0.062491998 -0.17139292
-0.24190965 -0.37758926 -0.03959192 -0.20741335 0.25520757 -0.11574252 0.27374205 0.2530021
-0.049090773 0.3198602 0.44352168 0.22298548 0.032390267 -0.100539126 0.17526568 0.211778
-0.045833953 0.16411759 0.006127017 -0.091574885 -0.074995905 -0.063280955 0.22098985 -0.1541465
0.015334026 0.026818167 0.025263062 0.14002816 -0.044300523 -0.17586489 0.24731565 -0.26852188
-0.12969218 0.2266371 -0.20615023 0.017793585 0.14365534 0.17937504 -0.00819305 -0.15378226
-0.18313019 -0.200327 0.048134055 0.23065184 -0.14904392 0.27118936 0.48425406 0.111119606
-0.02480135 -0.043950427 -0.51571345 0.09506432 -0.101335876 0.09162481 -0.023886923 -0.04726754
-0.3414222 -0.4062734 -0.120342314 -0.108663596 0.35495093 0.477624 0.17137495 0.25260356
0.3973182 0.07821821 -0.11083546 -0.18671332 -0.20718946 -0.1126536 0.45034903 -0.062837176
-0.42939463 -0.4533704 -0.0026591336 0.052564144 -0.3439203 -0.31764412 -0.1815663 -0.05113384
0.12112669 0.24218652 -0.34984368 0.060309004 0.16249493 -0.29539958 0.2584342 -0.12958822
-0.29837486 0.09284921 -0.16347025 -0.20846966 -0.25864357 -0.07905366 -0.3481455 -0.2669399
-0.0052549364 -0.32366234 0.25490478 0.23838846 0.27581078 0.35891896 -0.0022586111 -0.112697996
-0.046720885 -0.23975344 -0.30101275 -0.2045289 -0.21061678 -0.10022445 -0.34086144 -0.09401854
0.26562664 -0.12829423 -0.3732326 -0.08425629 -0.11618088 -0.46542585 -0.18757865 -0.022613166
-0.022190003 -0.22950484 0.025615336 -0.21308614 -0.13122101 -0.024634272 0.12865664 -0.2093704
0.17409782 -0.043277983 0.20022643 -0.07980022 0.17699829 -0.059012335 0.24188413 -0.24671307
0.20596355 -0.61705804 -0.12769626 -0.2637279 -0.087765865 0.021556774 -0.3126137 0.2572992
0.20146874 -0.103747375 -0.112718955 0.48868462 0.17520405 0.14957976 0.26099467 0.3044366
-0.32811067 0.26925498 0.40193403 0.18258274 -0.092605434 -0.042053577 0.0067965947 -0.018911785
-0.044091824 -0.4102397 -0.5252056 -0.030811502 -0.33673012 0.16398825 -0.20547079 -0.17609937
00000000: dbf5 53be d2b3 283d 4ab3 bfbd 8a6b a53d
00000010: 9571 e03c 87b8 47be 0eeb ad3d f511 c73e
00000020: bd06 8bbd fcc7 adbd d3a5 06be cd5d 0bbe
00000030: 6b5b 2b3d f772 d7bc 546f 5dbe d417 123e
00000040: c4c5 59bd 7d3d a23d 0be1 1ebe ca2e 073c
00000050: f05f 3b3e 226c eabd 62e8 863d 461a 523b
00000060: 1d50 6dbe f6ef 1e3e aed2 c3bd 813a f3bd
00000070: f24d c5be 3c3a eabc 9e75 87be f386 bfbe
00000080: 3b38 213e 6987 75be 4220 54be 3592 67bd
00000090: 3e4c 16bf 7858 a3be ec73 a7bd 0520 adbe
000000a0: d60b 19bb 97d7 28bd 2f21 dfbe d244 0e3e
000000b0: 87b7 d33e d0e1 163e f045 79be ddcd cabd
000000c0: e01c 1cbd 0945 763a 5cf3 63be c162 cd3c
000000d0: e51d 0f3c 88f4 e4bc b7b3 23bd 5d4c 333e
000000e0: 6b6a 5abd d3db 93be 8c24 36be 501b 013e
000000f0: 3a02 e73d ed6d b93e 3a77 913e 6ec9 67bd
00000100: 7607 36bd 8c27 1b3e bda9 883b 9cb3 f03c
00000110: 6b28 43bd 820f 50be 5220 48bf ae36 25bc
00000120: 39f3 4e3e bbed abbc 15ea 61bd 5b30 b63e
00000130: df4d 8d3e d3e2 d6be f918 1fbe cc63 f7be
00000140: bf8f 413e becf d93d 788e 583d 51a0 773e
00000150: 076c 6cbc 59af 11bc 9cf7 7fbd a081 2fbe
00000160: 2ab7 77be 6153 c1be 232b 22bd 2a64 54be
00000170: 91aa 823e 6a0a edbd eb27 8c3e 7e89 813e
00000180: 6813 49bd b7c4 a33e 4615 e33e 4e56 643e
00000190: a8ab 043d 75e7 cdbd d978 333e 55dc 583e
000001a0: 62bc 3bbd 710e 283e 25c5 c83b 9d8b bbbd
000001b0: 7497 99bd 7299 81bd 2a4b 623e 95d8 1dbe
000001c0: 913b 7b3c c6b1 db3c 7bf4 ce3c 8b63 0f3e
000001d0: 7774 35bd ed15 34be 5040 7d3e b37b 89be
000001e0: 07ce 04be 8e13 683e 0c19 53be dac3 913c
000001f0: 631a 133e 17ae 373e 243c 06bc 1979 1dbe
00000200: 7b86 3bbe 8522 4dbe 3728 453d ff2f 6c3e
00000210: f89e 18be 55d9 8a3e 26f0 f73e ad92 e33d
00000220: 332c cbbc 5d05 34bd cc05 04bf 15b1 c23d
00000230: 2f89 cfbd caa5 bb3d 82ae c3bc 9c9b 41bd
00000240: e4ce aebe 1103 d0be 0876 f6bd 058b debd
00000250: 21bc b53e 228b f43e ea7c 2f3e 4155 813e
00000260: 4b6d cb3e de30 a03d b4fd e2bd c731 3fbe
00000270: 7929 54be eeb6 e6bd 2694 e63e c7b0 80bd
00000280: 9dd9 dbbe 2a20 e8be dc44 2ebb 804d 573d
00000290: 5216 b0be 40a2 a2be 84ec 39be b871 51bd
000002a0: 4511 f83d beff 773e b61e b3be 9306 773d
000002b0: 1265 263e 9d3e 97be 7d51 843e c6b2 04be
000002c0: 97c4 98be ba27 be3d bf64 27be 1279 55be
000002d0: ee6c 84be e3e6 a1bd 2140 b2be 59ac 88be
000002e0: 9a31 acbb 12b7 a5be e182 823e 1b1c 743e
000002f0: 1237 8d3e 3ac4 b73e 3505 14bb 35ce e6bd
00000300: 665e 3fbd ed81 75be 581e 9abe 0670 51be
00000310: edab 57be 7a42 cdbd 6485 aebe cb8c c0bd
00000320: 3700 883e 905f 03be 5818 bfbe 908e acbd
00000330: 3ef0 edbd 4c4c eebe 9e14 40be 3f3f b9bc
00000340: cfc7 b5bc 5103 6bbe 41d7 d13c 4133 5abe
00000350: cd5e 06be d0cd c9bc 91be 033e 3265 56be
00000360: b346 323e 4144 31bd 2808 4d3e 4c6e a3bd
00000370: 0a3f 353e ebb6 71bd 79b0 773e 5aa2 7cbe
00000380: 1ce8 523e 84f7 1dbf cfc2 02be 5807 87be
00000390: 97be b3bd d597 b03c e70e a0be b9bc 833e
000003a0: d24d 4e3e 8179 d4bd 32d9 e6bd df34 fa3e
000003b0: b168 333e 702b 193e 18a1 853e 1ddf 9b3e
000003c0: 1ffe a7be cadb 893e 4cca cd3e f8f6 3a3e
000003d0: eba7 bdbd 5f40 2cbd f8b5 de3b e3ec 9abc
000003e0: a199 34bd f00a d2be e073 06bf 6768 fcbc
000003f0: e467 acbe 89ec 273e ef66 52be 6553 34be

layer1.0.conv2.bias f4 [7]
-0.27416864 -0.0012150679 -0.010193418 -0.13143447 0.24901667 -0.02753013 -0.2284059
00000000: d55f 8cbe ea42 9fba 4b02 27bc c296 06be
00000010: 3afe 7e3e de86 e1bc 3ce3 69be

layer1.0.bn2.weight f4 [7]
0.8709968 1.1021191 1.1414856 0.7413085 0.4697993 1.1074276 1.1708914
00000000: a5f9 5e3f 3d12 8d3f 331c 923f 65c6 3d3f
00000010: 8989 f03e 30c0 8d3f c5df 953f

layer1.0.bn2.bias f4 [7]
0.3867583 0.32274982 -0.08981114 -0.049088895 0.15947637 0.011308719 0.18918975
00000000: 2f05 c63e 773f a53e e7ee b7bd 7011 49bd
00000010: c64d 233e 3548 393c f5ba 413e

layer1.0.bn2.running_mean f4 [7]
-1.3606155 0.061713904 -0.5806676 -0.9332487 -0.50899726 -0.8441361 -2.225303
00000000: a628 aebf b8c7 7c3d a2a6 14bf 63e9 6ebf
00000010: a54d 02bf 4e19 58bf 5d6b 0ec0

layer1.0.bn2.running_var f4 [7]
1.6969837 1.8142166 1.4659371 1.815752 3.9296222 1.4472523 2.2948074
00000000: c336 d93f 4038 e83f d4a3 bb3f 906a e83f
00000010: ee7e 7b40 903f b93f 20de 1240

layer1.1.conv1.weight f4 [7, 7, 3, 3]
-0.2561777 0.10893395 -0.29567885 0.055765305 -0.16032892 -0.7564787 0.32353052 -0.04267878
-0.16744193 -0.3098474 -0.44117022 0.024066497 -0.03981331 0.6145908 0.6642133 -0.2108559
0.33029646 -0.107862055 0.42599392 -0.11699352 -0.34758773 -0.1450585 -0.12868097 -0.07501185
-0.1971448 -0.050711732 0.47239038 -0.08650487 -0.35313943 0.02561241 -0.0036599245 0.09882811
0.13974014 -0.09098946 0.022452261 0.31650794 0.010657856 -0.022626795 -0.28356114 -0.2968519
-0.23736638 -0.013275042 -0.052528314 0.03443364 0.06805386 -0.069183715 -0.16527587 -0.06986154
-0.030358894 -0.31768453 0.34987706 -0.15550646 0.16176605 0.23135471 -0.058989897 0.14864519
-0.012336148 -0.17716573 0.17634982 -0.13200073 -0.09624245 -0.24361405 -0.008677719 -0.11937138
-0.011023108 -0.072785325 0.21211691 0.040907126 0.15733485 -0.113722876 0.12927306 0.05250179
0.0927677 0.44395456 0.55194414 -0.3406033 0.14405262 0.15756889 0.21937665 -0.06918425
-0.49827993 0.36887082 0.048080735 -0.032083943 -0.22524899 -0.61246115 -0.66711307 0.17993703
-0.48927578 -0.27989134 0.23501723 -0.10922092 -0.055166572 0.081285335 -0.11515595 0.41308257
-0.14715724 0.1523908 0.2705719 0.12878993 -0.3357044 0.008382503 -0.31706995 -0.20167868
-0.0010847778 -0.23097032 -0.004316565 0.012033143 0.00045809464 -0.58684725 0.047365546 0.12080087
0.09481138 -0.10191295 -0.17074019 0.4208999 0.1776089 0.21132621 0.28927913 0.2598786
0.07495618 0.31464562 0.40351835 -0.09809618 0.1600397 0.05444183 0.114223465 -0.09592791
0.000113184564 -0.12066301 -0.02010731 0.2185325 0.2828926 0.39118066 0.032902382 0.1400673
-0.16759165 0.23921277 0.16907355 -0.54488003 -0.10313606 0.07708485 -0.5437335 -0.17896524
0.22781071 0.22198671 -0.03801513 -0.05335689 0.38622996 0.3214357 -0.08477423 0.2369121
-0.06348242 0.031313293 0.10278892 0.15611419 0.4104527 0.24637358 -0.27411994 0.06686339
0.18419574 -0.08624995 -0.16611266 0.05004022 -0.19079883 0.018839246 0.01822248 -0.17729476
0.18200825 0.058034647 -0.19127847 0.28179303 0.46584412 0.21420635 0.0014704363 0.3225713
0.08733049 0.5117709 0.067064345 0.0038872394 -0.28455213 0.099769294 -0.10725414 -0.2555729
0.15710802 0.011717074 0.19148336 0.090708174 -0.43167865 -0.029611593 0.036672756 0.27107748
0.1825853 -0.020236906 0.10951884 0.03570682 -0.080073565 0.033035 -0.13594045 -0.0629012
-0.32912982 -0.26369372 -0.39725858 0.0026161727 0.06346266 -0.44376612 0.24291793 -0.23651819
0.028796934 0.6528023 -0.06569025 -0.24278866 -0.2690443 0.20129558 0.27551267 -0.13253061
0.42904693 -0.05647568 -0.057861455 -0.038401037 0.14751291 0.009640836 0.1796908 -0.05871671
-0.28686097 0.16685387 0.12393815 -0.05019938 0.37608865 0.35822016 -0.08659486 -0.23424032
0.06223721 -0.14177746 -0.020134978 0.03644205 -0.37345088 -0.04288109 -0.3274734 -0.39811522
0.06893238 -0.35242146 -0.47004062 0.07775884 0.1820341 -0.010495199 0.15976083 0.08248095
0.06761477 0.25664702 -0.10795624 0.10931291 -0.24802631 -0.5582736 0.034662724 -0.23232172
00000000: b929 83be c318 df3d 3863 97be 296a 643d
00000010: 442d 24be 97a8 41bf cba5 a53e f2cf 2ebd
00000020: e675 2bbe 52a4 9ebe 10e1 e1be 1a27 c53c
00000030: 4813 23bd d355 1d3f e209 2a3f 9cea 57be
00000040: 9e1c a93e c8e6 dcbd e01b da3e 4c9a efbd
00000050: 05f7 b1be 378a 14be f2c4 03be d09f 99bd
00000060: 54e0 49be 1bb7 4fbd 27dd f13e 7729 b1bd
00000070: b1ce b4be 1ed1 d13c 58db 6fbb 6466 ca3d
00000080: 0a18 0f3e af58 babd ceed b73c 540d a23e
00000090: 4a9e 2e3c d45b b9bc ed2e 91be f9fc 97be
000000a0: 2c10 73be 907f 59bc ee27 57bd 4a0a 0d3d
000000b0: d25f 8b3d 31b0 8dbd 143e 29be 9113 8fbd
000000c0: 37b3 f8bc 8ca7 a2be 1623 b33e 163d 1fbe
000000d0: 00a6 253e 40e8 6c3e 649f 71bd 7236 183e
000000e0: 8e1d 4abc ef6a 35be 0c95 343e 332b 07be
000000f0: c31a c5bd f675 79be fe2c 0ebc fb78 f4bd
00000100: 449a 34bc 7910 95bd 2d35 593e 3b8e 273d
00000110: 631c 213e 8ae7 e8bd 2860 043e 1e0c 573d
00000120: fefc bd3d 034e e33e 364c 0d3f 8e63 aebe
00000130: 8882 133e bd59 213e 46a4 603e 79b0 8dbd
00000140: 8c1e ffbe a3dc bc3e 4ef0 443d 746a 03bd
00000150: aca7 66be 41ca 1cbf ecc7 2abf 6a41 383e
00000160: 5b82 fabe eb4d 8fbe 5ba8 703e 38af dfbd
00000170: 58f6 61bd ed78 a63d e2d6 ebbd 8f7f d33e
00000180: 63b0 16be 550c 1c3e 6688 8a3e 82e1 033e
00000190: 72e1 abbe c456 093c fe56 a2be db84 4ebe
000001a0: 1a2f 8eba 7c83 6cbe f971 8dbb a926 453c
000001b0: 6c2c f039 9f3b 16bf 6002 423d 7266 f73d
000001c0: 782c c23d bdb7 d0bd 84d6 2ebe 3180 d73e
000001d0: 1cdf 353e e665 583e 651c 943e cf0e 853e
000001e0: a082 993d 3b19 a13e f599 ce3e a6e6 c8bd
000001f0: 72e1 233e 65fe 5e3d feed e93d da75 c4bd
00000200: 805d ed38 2b1e f7bd 16b8 a4bc fcc6 5f3e
00000210: 4dd7 903e d548 c83e a6c4 063d cd6d 0f3e
00000220: 259d 2bbe 31f4 743e 9e21 2d3e 427d 0bbf
00000230: 0039 d3bd a9de 9d3d 1e32 0bbf aa42 37be
00000240: 3647 693e 7c50 633e c1b5 1bbd c18c 5abd
00000250: efbf c53e 3893 a43e 1d9e adbd 1699 723e
00000260: 1203 82bd 5e42 003d ff82 d23d 66dc 1f3e
00000270: db26 d23e 5b49 7c3e 7359 8cbe acef 883d
00000280: cf9d 3c3e d0a3 b0bd 7019 2abe f9f6 4c3d
00000290: c560 43be c354 9a3c 4f47 953c c28c 35be
000002a0: 5f60 3a3e bdb5 6d3d 81de 43be 2d47 903e
000002b0: 1f83 ee3e e958 5b3e a8bb c03a 1128 a53e
000002c0: 54da b23d 6b03 033f 0859 893d 0ec1 7e3b
000002d0: d1b0 91be d853 cc3d 0fa8 dbbd 73da 82be
000002e0: ede0 203e f8f8 3f3c 3714 443e 35c5 b93d
000002f0: fc04 ddbe 0394 f2bc 2c36 163d abca 8a3e
00000300: a4f7 3a3e dec7 a5bc 6a4b e03d 5141 123d
00000310: 9cfd a3bd b54f 073d f933 0bbe 58d2 80bd
00000320: b483 a8be dd02 87be 7a65 cbbe 1874 2b3b
00000330: b6f8 813d 5035 e3be 7abf 783e d331 72be
00000340: 8ce7 eb3c 0d1e 273f 9c88 86bd 979d 78be
00000350: 2dc0 89be 6e20 4e3e ff0f 8d3e 1bb6 07be
00000360: 0aac db3e 0b53 67bd 2200 6dbd 684a 1dbd
00000370: a00d 173e 99f4 1d3c dd00 383e ef80 70bd
00000380: 71df 92be bedb 2a3e 49d3 fd3d dd9d 4dbd
00000390: b18e c03e a268 b73e a558 b1bd b2dc 6fbe
000003a0: 72ec 7e3d 1c2e 11be 1cf2 a4bc 4244 153d
000003b0: f434 bfbe 15a4 2fbd 98aa a7be c2d5 cbbe
000003c0: 6b2c 8d3d 9670 b4be 2aa9 f0be 0740 9f3d
000003d0: 2667 3a3e 0ef4 2bbc 5898 233e c6eb a83d
000003e0: 9d79 8a3d 3d67 833e 2918 ddbd 72df df3d
000003f0: 9cfa 7dbe 05eb 0ebf 80fa 0d3d bfe5 6dbe

layer1.1.conv1.bias f4 [7]
-0.37371 -0.3960204 -0.14641139 -0.20210135 -0.035130948 -0.053342804 0.43168348
00000000: eb56 bfbe 30c3 cabe deec 15be a8f3 4ebe
00000010: 78e5 0fbd fc7d 5abd 9e05 dd3e

layer1.1.bn1.weight f4 [7]
1.264781 1.1103703 0.8863945 0.9612211 0.972794 0.85467833 0.9074926
00000000: 58e4 a13f 9d20 8e3f c0ea 623f 9612 763f
00000010: 0709 793f 33cc 5a3f 6f51 683f

layer1.1.bn1.bias f4 [7]
0.064421326 0.07248782 0.029832993 0.5970636 -0.2188718 0.05544491 0.16864602
00000000: 54ef 833d 7f74 943d 5264 f43c 29d9 183f
00000010: ee1f 60be 341a 633d 8bb1 2c3e

layer1.1.bn1.running_mean f4 [7]
-2.6795752 -0.43481618 3.871188 -1.4422455 -5.708123 2.2063816 1.091851
00000000: 297e 2bc0 3aa0 debe 8bc1 7740 809b b8bf
00000010: f2a8 b6c0 5b35 0d40 c6c1 8b3f

layer1.1.bn1.running_var f4 [7]
7.9610376 7.160374 6.709857 6.8201013 5.210969 8.139912 4.856034
00000000: d2c0 fe40 c921 e540 26b7 d640 453e da40
00000010: 42c0 a640 143d 0241 a164 9b40

layer1.1.conv2.weight f4 [7, 7, 3, 3]
0.07122489 -0.08286784 -0.4383612 -0.13248578 -0.011205231 -0.26746735 -0.17353672 0.07819826
-0.20215484 0.14078969 -0.15003781 -0.35941905 -0.12058413 0.008052459 -0.13946186 0.2914966
0.39325014 -0.37494382 0.1820546 0.023136888 -0.011407778 0.15736806 -0.15697326 -0.055364445
0.16574182 0.2568852 -0.025705824 0.0872359 -0.17487812 -0.24869455 0.64600796 0.5152241
-0.21499982 0.34347427 0.15514342 -0.1810589 -0.3170305 -0.2913102 -0.11104491 -0.6220621
-0.325178 -0.36357173 -0.35105363 0.23252101 -0.36085865 -0.024097214 -0.27647898 0.06491996
0.027168782 0.13554373 -0.017341262 0.32152537 0.053073555 0.014496791 -0.14992097 -0.16515648
-0.113363124 -0.007933141 -0.19117253 0.41250524 -0.03644725 0.26263884 0.08602357 0.026397292
-0.026361994 0.2395247 0.24806386 0.30367786 0.18222895 -0.30821288 0.08568655 0.090304896
-0.38414916 -0.058403995 -0.10130134 0.039934117 0.046214715 0.1739548 0.6620715 0.08387897
-0.053687684 0.03621154 0.049476825 -0.47317427 -0.194382 0.33883914 -0.015252753 -0.041069582
0.17444465 -0.27844507 0.22284631 -0.02003464 -0.48887655 0.022509914 -0.10614711 -0.5597868
-0.39317766 0.17132728 0.12964734 -0.31287894 -0.0092521 0.05936551 0.22654037 0.34249175
0.17093901 0.20849925 -0.25653562 -0.17178777 -0.28530815 -0.29567522 -0.5983761 0.17645039
-0.29334766 -0.14780861 0.07194437 0.20217012 0.24804124 -0.029445857 -0.09860565 0.072502844
-0.15421924 0.33542687 0.24857412 0.19874343 0.012906204 -0.05546538 -0.26930586 -0.18505962
0.26768106 0.100179106 -0.034315042 0.15034968 0.31425607 0.13648945 0.34716213 -0.058860347
-0.15119922 0.13642986 -0.9207173 -0.4596613 0.23979843 -0.09703685 0.083643176 0.086332574
0.09363069 -0.27466178 -0.34641844 0.2715378 -0.03956881 0.40250823 0.24401502 0.18520823
0.06455626 0.13573487 0.2200821 0.009102665 0.17616013 0.12574646 0.018132396 -0.1453896
0.17381708 0.43798417 -0.15599453 -0.3571894 -0.36366585 -0.51825124 0.03737931 -0.36464894
0.10648435 -0.052496154 -0.25472286 -0.08800012 0.010672015 0.08754266 0.01673517 0.33019826
0.09638436 0.18724911 0.18173617 -0.29017562 0.047893908 -0.06494202 -0.003094401 0.25561145
0.22186844 0.18318436 -0.2634859 0.051572017 0.13731448 -0.2844147 -0.14945422 -0.40030426
-0.2033461 -0.013568668 -0.50052035 -0.06214791 0.11416706 -0.18737486 0.5403034 0.5496372
0.10269687 0.26309982 0.38987288 0.06281652 -0.09686619 -0.42382827 -0.39244333 0.34399962
-0.52497905 -0.52333915 0.25044966 -0.18838209 -0.28835118 0.072212085 0.07393192 -0.17622428
-0.07152021 -0.064103305 -0.14491239 -0.24978995 -0.21555851 0.13208805 -0.04464689 -0.100242175
-0.28377604 -0.3569549 0.19440588 0.09782751 -0.13783048 -0.06392769 0.13806696 0.050741103
-0.20744169 0.1357294 0.13794735 -0.40453967 -0.18698087 -0.12638642 0.009055735 -0.325198
-0.0014472619 -0.3573325 -0.23696323 0.16825175 -0.076587066 -0.007608969 -0.023380255 0.032471225
0.18065841 -0.04400271 -0.013591557 -0.19130816 -0.5152044 -0.23347808 0.49777818 -0.39192986
00000000: 5bde 913d 9db6 a9bd e170 e0be 5aaa 07be
00000010: 2596 37bc 7bf1 88be 9cb3 31be 6926 a03d
00000020: ae01 4fbe 2c2b 103e 83a3 19be c605 b8be
00000030: d0f4 f6bd 76ee 033c 17cf 0ebe 0b3f 953e
00000040: 1558 c93e a3f8 bfbe 856c 3a3e 9289 bd3c
00000050: b0e7 3abc 1825 213e 99bd 20be d4c5 62bd
00000060: 39b8 293e 7586 833e 0595 d2bc bca8 b23d
00000070: 4013 33be c9a9 7ebe c760 253f bae5 033f
00000080: ea28 5cbe dcdb af3e ebdd 1e3e 8167 39be
00000090: d251 a2be 9c26 95be 846b e3bd 763f 1fbf
000000a0: bb7d a6be 1326 babe 4dbd b3be fd19 6e3e
000000b0: 77c2 b8be 8567 c5bc a78e 8dbe c2f4 843d
000000c0: 1191 de3c facb 0a3e 430f 8ebc f99e a43e
000000d0: a863 593d f383 6d3c e284 19be c81e 29be
000000e0: ed2a e8bd 01fa 01bc bbc2 43be e333 d33e
000000f0: b649 15bd 9978 863e 202d b03d 223f d83c
00000100: 1cf5 d7bc f745 753e 7404 7e3e aa7b 9b3e
00000110: 3a9a 3a3e 14ce 9dbe 6e7c af3d c6f1 b83d
00000120: 33af c4be 0739 6fbd 1477 cfbd f591 233d
00000130: a44b 3d3d 3521 323e 857d 293f bdc8 ab3d
00000140: 9ee7 5bbd 8d52 143d 36a8 4a3d e643 f2be
00000150: 130c 47be 537c ad3e afe6 79bc 9438 28bd
00000160: 9ea1 323e 5a90 8ebe d331 643e af1f a4bc
00000170: 074e fabe b666 b83c a863 d9bd 304e 0fbf
00000180: 954e c9be 6b70 2f3e 46c2 043e ab31 a0be
00000190: 1f96 17bc 4029 733d 33fa 673e 145b af3e
000001a0: a30a 2f3e d480 553e a358 83be 22e9 2fbe
000001b0: e913 92be be62 97be 2d2f 19bf 69af 343e
000001c0: aa31 96be 245b 17be 9257 933d af05 4f3e
000001d0: 86fe 7d3e 7038 f1bc c2f1 c9bd 5f7c 943d
000001e0: a6eb 1dbe 12bd ab3e 378a 7e3e 6683 4b3e
000001f0: 8b74 533c ab2f 63bd 75e2 89be 4580 3dbe
00000200: 7e0d 893e b42a cd3d ee8d 0cbd 44f5 193e
00000210: 2ce6 a03e e4c3 0b3e 3cbf b13e 8c17 71bd
00000220: f8d3 1abe 45b4 0b3e 21b4 6bbf ba58 ebbe
00000230: b88d 753e 42bb c6bd 1d4d ab3d 22cf b03d
00000240: 72c1 bf3d 78a0 8cbe c25d b1be 0107 8b3e
00000250: e812 22bd 8f15 ce3e 13df 793e 3aa7 3d3e
00000260: 1336 843d 15fe 0a3e 345d 613e 5823 153c
00000270: 5263 343e aec3 003e 648a 943c 03e1 14be
00000280: 1bfd 313e 763f e03e 08bd 1fbe 87e1 b6be
00000290: 6932 babe 1dac 04bf 0c1b 193d 44b3 babe
000002a0: 7814 da3d 3506 57bd 096b 82be 6839 b4bd
000002b0: add9 2e3c 9149 b33d 3218 893c bf0f a93e
000002c0: 2a65 c53d 3bbe 3f3e 0c19 3a3e e691 94be
000002d0: 672c 443d 5200 85bd 6fcb 4abb 81df 823e
000002e0: 7b31 633e ae94 3b3e a0e7 86be 2e3d 533d
000002f0: 2b9c 0c3e ce9e 91be 870a 19be aef4 ccbe
00000300: f639 50be 1e4f 5ebc 1a22 00bf cf8e 7ebd
00000310: 6bd0 e93d 32df 3fbe 5351 0a3f 06b5 0c3f
00000320: bd52 d23d 05b5 863e 6b9d c73e f3a5 803d
00000330: c861 c6bd 0500 d9be 55ee c8be b820 b03e
00000340: 0765 06bf 8ef9 05bf f03a 803e 3ce7 40be
00000350: c4a2 93be eee3 933d 9e69 973d 2374 34be
00000360: 3079 92bd 9848 83bd ea63 14be f0c8 7fbe
00000370: 5fbb 5cbe 1742 073e a8df 36bd c54b cdbd
00000380: 184b 91be cbc2 b6be 5612 473e ca59 c83d
00000390: 6f23 0dbe 85ec 82bd 6d61 0d3e e7d5 4f3d
000003a0: 986b 54be a6fc 0a3e 1242 0d3e d31f cfbe
000003b0: ea77 3fbe 716b 01be 815e 143c 5a80 a6be
000003c0: 0db2 bdba 49f4 b6be 7da6 72be 304a 2c3e
000003d0: aed9 9cbd a954 f9bb f387 bfbc 8c00 053d
000003e0: 85fe 383e 303c 34bd 1faf 5ebc 49e6 43be
000003f0: 70e4 03bf e114 6fbe c8dc fe3e 08ab c8be

layer1.1.conv2.bias f4 [7]
0.013024892 -0.3381043 0.13401902 0.18631753 -0.10957616 0.18139294 -0.090950266
00000000: 5b66 553c 021c adbe 483c 093e 06ca 3e3e
00000010: 7769 e0bd 12bf 393e 2244 babd

layer1.1.bn2.weight f4 [7]
0.7942756 0.94904923 0.5822904 1.184499 0.6192921 1.3527116 0.89151734
00000000: a555 4b3f e4f4 723f fc10 153f aa9d 973f
00000010: ed89 1e3f a725 ad3f 7b3a 643f

layer1.1.bn2.bias f4 [7]
0.4362986 0.17575854 0.11576128 0.109503634 0.59935385 -0.2670538 0.3096812
00000000: 8862 df3e 0cfa 333e 4014 ed3d 7143 e03d
00000010: 416f 193f 47bb 88be 898e 9e3e

layer1.1.bn2.running_mean f4 [7]
-0.33196133 -0.57699627 0.9388084 -1.740122 0.24928269 -1.0573902 -1.2032099
00000000: d6f6 a9be 07b6 13bf bf55 703f 51bc debf
00000010: f643 7f3e 9058 87bf c802 9abf

layer1.1.bn2.running_var f4 [7]
2.0251126 2.089931 2.3178284 2.2156582 2.507559 2.2380774 3.3639252
00000000: 729b 0140 6ec1 0540 4d57 1440 58cd 0d40
00000010: d97b 2040 a93c 0f40 8d4a 5740

layer2.0.conv1.weight f4 [9, 7, 3, 3]
0.23552038 0.10329547 -0.03622083 -0.092277594 -0.04369056 -0.22940128 0.038838025 -0.3348305
-0.34702304 0.50553954 0.44334048 0.19767134 0.10201651 -0.06039651 -0.044482443 0.21971716
-0.2262968 0.023659263 -0.20390019 -0.13825925 -0.1573039 0.041471045 -0.18970627 -0.44567716
0.02693286 0.06137635 -0.26620397 -0.16941684 0.17727734 0.18309514 0.10685861 -0.00523367
0.20107324 0.4253126 0.47187144 0.3141489 0.13773935 0.030231541 -0.005088647 0.33413833
0.2701162 -0.105309 -0.0901567 -0.08155016 0.0014547908 0.045878254 -0.15596475 -0.24156867
0.0021922272 -0.08160908 -0.49236646 0.07854872 0.17479616 0.062320437 0.3661546 0.5004227
0.16534227 0.24789321 0.042410295 -0.1867498 0.22990061 0.028567767 -0.30387005 -0.07122556
0.06382234 0.038648874 0.32356873 0.2489439 -0.066687874 0.19362909 0.2274935 -0.009562801
-0.045513645 0.17673878 -0.3223216 -0.35446355 -0.17062658 -0.23601271 -0.07236617 -0.15657958
-0.07176086 -0.29451725 -0.14743234 -0.31622547 -0.18192744 -0.11270437 -0.23675059 -0.11661494
-0.26263362 -0.33038723 -0.01923988 -0.022877494 -0.31011054 0.06164679 -0.04491747 -0.114979476
0.07243042 0.021065265 0.16355981 0.1284351 -0.072892316 -0.48888418 0.25216937 0.100657806
-0.20308618 0.11477548 0.47562954 0.1884358 0.33475626 0.10912139 0.009878698 0.29929432
-0.06760726 -0.25579503 -0.110405095 0.04932144 -0.094539344 0.21523039 -0.12488805 -0.254991
0.31760487 -0.06702081 -0.18604384 0.4678336 0.4339323 0.159284 0.25395647 -0.113060266
0.21997459 0.26955977 0.00039380626 0.28643918 0.116967455 -0.12322254 0.2311841 -0.14721474
-0.42049265 -0.13301615 -0.2321066 -0.3658232 -0.20894381 -0.4019248 -0.25165942 -0.088299975
-0.461754 -0.36791715 0.080416955 -0.30792418 -0.05994643 -0.07864058 0.115470685 -0.24248166
0.010323551 0.45489863 -0.060674313 -0.35958382 0.18490899 -0.29795524 -0.081346445 -0.13769256
0.12967157 -0.03162994 0.23560977 0.13446754 0.10776898 0.3666028 0.057441305 -0.1058741
0.13463475 -0.08818606 0.13465874 0.110986136 0.22810945 0.14112025 -0.26623672 0.14277434
0.01667355 0.023843745 0.45045438 0.01860622 0.2975051 0.5526646 0.15908107 0.22941056
0.122538805 -0.0056990534 -0.21778873 -0.01216433 0.31229 0.012113489 -0.31005943 -0.39744347
0.07960983 -0.17498775 -0.52724934 0.039446536 0.0682415 -0.3818554 0.061898865 0.10486979
0.004306228 0.20742403 0.14125171 -0.0008820521 0.28584507 -0.07204444 0.051947523 -0.15166566
-0.21874878 -0.12748171 -0.02770037 0.009848806 0.07582756 0.07269007 -0.106021635 -0.1831063
0.40109697 0.3530443 0.19130701 0.1847979 0.18830256 0.0023172714 -0.0057154656 -0.35464454
-0.18876675 0.2161605 -0.054148223 0.060565695 -0.14901784 -0.13996863 -0.44648847 0.17941347
-0.11708447 0.0006091205 0.12791064 0.048348665 0.012926847 0.43085724 -0.015381259 -0.08186565
0.069267236 0.13793208 -0.043443546 -0.29593238 0.03840892 0.45185116 -0.40716192 -0.7742621
-0.6176443 -0.5790241 -0.42687848 -0.2081224 0.05065712 -0.06623797 -0.30438733 -0.06910696
00000000: 412c 713e 938c d33d 4b5c 14bd 09fc bcbd
00000010: dff4 32bd 2be8 6abe 9f14 1f3d e76e abbe
00000020: 01ad b1be 0a6b 013f 86fd e23e 5b6a 4a3e
00000030: 08ee d03d 5562 77bd 3933 36bd 89fd 603e
00000040: 59ba 67be 12d1 c13c 36cb 50be d593 0dbe
00000050: 4614 21be 8bdd 293d 5c42 42be cc2f e4be
00000060: 4da2 dc3c c465 7b3d e34b 88be 9c7b 2dbe
00000070: 3188 353e 4b7d 3b3e b0d8 da3d 357f abbb
00000080: 25e6 4d3e 93c2 d93e 2299 f13e 20d8 a03e
00000090: 8b0b 0d3e 23a8 f73c aabe a6bb 2e14 ab3e
000000a0: ac4c 8a3e 3fac d7bd 13a4 b8bd c503 a7bd
000000b0: aeae be3a d6ea 3b3d 39b5 1fbe c75d 77be
000000c0: 78ab 0f3b a922 a7bd 7517 fcbe 27de a03d
000000d0: c4fd 323e b743 7f3d 9e78 bb3e b41b 003f
000000e0: 7c4f 293e b8d7 7d3e 6bb6 2d3d 573b 3fbe
000000f0: 116b 6b3e f306 ea3c db94 9bbe b5de 91bd
00000100: 49b5 823d 484e 1e3d cdaa a53e 26eb 7e3e
00000110: a793 88bd b446 463e 0ef4 683e 4bad 1cbc
00000120: 846c 3abd 03fb 343e 5607 a5be 3f7c b5be
00000130: bcb8 2ebe 51ad 71be b734 94bd 6656 20be
00000140: 5cf7 92bd f7ca 96be 81f8 16be 4ee8 a1be
00000150: 304b 3abe 8cd1 e6bd bf6e 72be d0d3 eebd
00000160: ea77 86be 8428 a9be f49c 9dbc 9569 bbbc
00000170: cfc6 9ebe 5881 7c3d 62fb 37bd 5c7a ebbd
00000180: 6656 943d 1091 ac3c 397c 273e 7e84 033e
00000190: 9148 95bd 074f fabe 581c 813e ae25 ce3d
000001a0: d3f5 4fbe 680f eb3d b785 f33e 50f5 403e
000001b0: 2c65 ab3e 097b df3d 43da 213c 1b3d 993e
000001c0: ad75 8abd 91f7 82be 111c e2bd 4705 4a3d
000001d0: d89d c1bd 5b65 5c3e 4ec5 ffbd 2e8e 82be
000001e0: 1b9d a23e 3542 89bd 4782 3ebe e387 ef3e
000001f0: 602c de3e 581b 233e 9506 823e 248c e7bd
00000200: 0541 613e bd03 8a3e c877 ce39 28a8 923e
00000210: a28c ef3d 195c fcbd 86bb 6c3e 76bf 16be
00000220: d04a d7be 6335 08be 5aad 6dbe 2e4d bbbe
00000230: 5ef5 55be 16c9 cdbe 81d9 80be 9ed6 b4bd
00000240: 056b ecbe a35f bcbe a5b1 a43d 3da8 9dbe
00000250: 638a 75bd 500e a1bd e57b ec3d 1d4d 78be
00000260: 1c24 293c 79e8 e83e a185 78bd 5f1b b8be
00000270: c858 3d3e 978d 98be f798 a6bd 47ff 0cbe
00000280: a0c8 043e 658e 01bd b043 713e dcb1 093e
00000290: fcb5 dc3d 5db3 bb3e 9347 6b3d 85d4 d8bd
000002a0: b1dd 093e e59a b4bd fbe3 093e b34c e33d
000002b0: 8695 693e d481 103e 2e50 88be 7033 123e
000002c0: f896 883c f553 c33c f5a1 e63e 126c 983c
000002d0: 9752 983e 6d7b 0d3f 26e6 223e 9aea 6a3e
000002e0: a0f5 fa3d 20bf babb 0204 5fbe e64c 47bc
000002f0: 7ae4 9f3e a877 463c 1cc0 9ebe b67d cbbe
00000300: 7b0a a33d fd2f 33be d0f9 06bf b192 213d
00000310: 33c2 8b3d 8d82 c3be aa89 7d3d f9c5 d63d
00000320: 421b 8d3b f766 543e 4aa4 103e 8439 67ba
00000330: 495a 923e 098c 93bd edc6 543d 3e4e 1bbe
00000340: aeff 5fbe 918a 02be e3eb e2bc e35c 213c
00000350: 7b4b 9b3d 88de 943d df21 d9bd 3880 3bbe
00000360: 955c cd3e 39c2 b43e fce5 433e a93b 3d3e
00000370: 63d2 403e 5ddd 173b cd48 bbbb f893 b5be
00000380: 124c 41be 2e59 5d3e 87ca 5dbd bc13 783d
00000390: 2298 18be f053 0fbe 239a e4be 2ab8 373e
000003a0: fcc9 efbd 63ad 1f3a 02fb 023e 4009 463d
000003b0: 20cb 533c 5299 dc3e ad01 7cbc 2ea9 a7bd
000003c0: fbdb 8d3d 113e 0d3e dcf1 31bd 7384 97be
000003d0: ac52 1d3d 0959 e73e 8777 d0be 0a36 46bf
000003e0: f01d 1ebf ec3a 14bf d18f dabe 0a1e 55be
000003f0: d77d 4f3d c6a7 87bd a8d8 9bbe f387 8dbd

layer2.0.conv1.bias f4 [9]
-0.14484005 -0.22330506 0.0236404 0.26069725 0.13010937 0.027285421 -0.1975493 0.25283793
-0.13512702
00000000: f350 14be 15aa 64be 83a9 c13c 1c7a 853e
00000010: 643b 053e ad85 df3c 5d4a 4abe f973 813e
00000020: bd5e 0abe

layer2.0.bn1.weight f4 [9]
1.0999904 0.9739398 0.79041004 0.9683492 1.0143371 0.91846 1.1687976 0.9951529
1.169524
00000000: 7ccc 8c3f 1e54 793f 5058 4a3f bce5 773f
00000010: ccd5 813f 3220 6b3f 299b 953f 57c2 7e3f
00000020: f6b2 953f

layer2.0.bn1.bias f4 [9]
0.2822169 0.4000678 -0.028696265 -0.28529543 -0.032140505 -0.06798325 -0.0853645 0.028138934
-0.3592855
00000000: bc7e 903e b0d5 cc3e 6e14 ebbc 3e12 92be
00000010: c3a5 03bd cd3a 8bbd 95d3 aebd 9f83 e63c
00000020: 45f4 b7be

layer2.0.bn1.running_mean f4 [9]
0.43924785 -0.57011735 1.1878424 -4.6115136 -1.3472776 0.57018584 -1.2622017 -4.7173185
-1.4471834
00000000: 18e5 e03e 36f3 11bf 380b 983f 8591 93c0
00000010: 9873 acbf b3f7 113f d38f a1bf 46f4 96c0
00000020: 4e3d b9bf

layer2.0.bn1.running_var f4 [9]
14.371765 10.2794 9.834169 14.876331 7.6106033 9.475243 12.033381 14.718138
9.290871
00000000: c0f2 6541 6c78 2441 c258 1d41 7405 6e41
00000010: 108a f340 989a 1741 bb88 4041 7e7d 6b41
00000020: 68a7 1441

layer2.0.conv2.weight f4 [9, 9, 3, 3]
0.26442483 -0.600457 0.10769847 0.023848938 -0.012020172 0.22727351 -0.4003892 0.0936735
0.0986145 0.21997806 -0.25328824 0.51057434 0.14469631 0.005177299 -0.009106969 0.18920495
0.31443128 0.05819737 0.34415308 -0.123806015 0.06504815 0.12588404 0.0015700124 0.13479103
0.1823938 0.19706163 -0.0837331 0.049013004 0.227449 -0.12142706 -0.12816356 -0.17939743
0.08496002 -0.00032275426 0.13480578 0.06407546 0.15696801 0.09653045 0.08836518 0.098822184
0.48753667 0.035281334 0.039578605 0.18695185 -0.05121319 0.0514978 -0.22068739 -0.11877979
-0.22092141 -0.12021308 0.28223675 -0.11684011 0.065319754 0.3153653 -0.07315255 0.27147853
0.096229196 -0.4323738 -0.016087431 0.3283968 -0.29890305 -0.120176904 -0.13463642 0.039938323
0.16033652 0.23736684 -0.27426276 0.28486112 0.017207595 -0.27651748 0.20030951 0.37279588
0.7218783 0.06311355 -0.019710902 0.26924017 0.13622011 0.09731213 0.25623772 -0.11045649
-0.07472844 0.14384374 0.09623074 -0.033311963 -0.08919969 0.32238045 0.21107084 -0.17267753
-0.08771447 0.30334887 -0.17830077 -0.05076079 -0.18488923 -0.23465014 -0.2544186 -0.11490891
0.1313004 0.12537208 -0.34486058 0.06689764 -0.17955925 -0.17533104 -0.16676153 -0.2018367
-0.18506397 -0.10844404 -0.05627341 0.18316516 -0.22749464 -0.09216334 0.47611165 -0.32962036
-0.21783409 0.42600343 -0.14940417 0.0601329 -0.04143659 0.018084832 -0.09568653 0.20617987
0.014707127 -0.14556822 -0.21388389 0.107752286 -0.03127253 -0.016672406 0.035797387 -0.16305532
0.16196063 0.03563871 0.26422122 0.21338663 0.09252773 0.08525044 0.31938726 0.13560775
0.29425657 0.3211004 0.22095607 0.55428743 0.3663036 0.13920861 -0.050578628 0.04802482
0.07931616 0.20327662 0.05757967 -0.28627637 0.17706303 0.5172891 0.023916995 -0.108650096
0.29119363 -0.331972 -0.079311974 -0.55105776 -0.13829905 0.027690569 0.03170404 -0.06645931
-0.013204727 0.37020934 0.28065225 0.37969717 -0.050473146 0.28411713 -0.24221712 0.07820012
-0.13884395 -0.41378507 0.08950583 -0.1802417 -0.25299075 -0.03520714 -0.03952333 -0.108988255
-0.25171736 0.41851562 0.20678745 -0.28246555 0.05350292 0.16353463 0.07727209 0.13063526
0.11155741 -0.0073950435 0.13239975 -0.10906167 -0.09414157 0.2603745 0.07789328 -0.021094598
0.3251847 -0.16357139 -0.020343825 -0.29160336 -0.19171585 0.36070725 0.18262047 0.20552509
-0.23422158 -0.20824893 -0.14330904 -0.28480557 0.038434867 -0.0011402252 -0.10168305 0.06440798
-0.009489228 0.06787765 0.24710375 0.19020887 -0.23253429 -0.08093851 0.16763425 -0.10757296
0.016690737 0.019645205 -0.15264605 -0.11824806 -0.12964779 0.29580584 -0.29984897 0.35552543
0.12552772 -0.08746679 0.114304304 0.11588236 -0.17359428 -0.007212996 0.04139135 -0.018390946
0.2715752 0.35338253 0.31302044 0.14989957 -0.06336324 0.3690194 0.32870817 -0.2619915
0.4115122 0.09356184 0.34250188 -0.24498948 0.05193594 0.29538572 0.10757285 -0.12164512
-0.023466805 0.3326614 0.36845222 -0.28871614 0.12375262 0.4274886 0.07279568 0.4274755
00000000: b162 873e 8db7 19bf 0491 dc3d d95e c33c
00000010: 41f0 44bc 63ba 683e d0ff ccbe e4d7 bf3d
00000020: 66f6 c93d ee41 613e ffae 81be 00b5 023f
00000030: 452b 143e 55a6 a93b 6635 15bc f1be 413e
00000040: 23fd a03e 5e60 6e3d d534 b03e 028e fdbd
00000050: f737 853d bfe7 003e e0c8 cd3a a906 0a3e
00000060: 71c5 3a3e 86ca 493e 427c abbd dcc1 483d
00000070: 64e8 683e c0ae f8bd 4f3d 03be f6b3 37be
00000080: 85ff ad3d 5837 a9b9 870a 0a3e ff39 833d
00000090: 39bc 203e c2b1 c53d cef8 b43d 4963 ca3d
000000a0: 689e f93e 2983 103d 2d1d 223d 4e70 3f3e
000000b0: ecc4 51bd 5bef 523d e0fb 61be d242 f3bd
000000c0: 3939 62be 4632 f6bd 5681 903e de49 efbd
000000d0: 5dc6 853d 9077 a13e 01d1 95bd 3cff 8a3e
000000e0: d013 c53d 1960 ddbe cac9 83bc a023 a83e
000000f0: d209 99be 4f1f f6bd 21de 09be 5e96 233d
00000100: 422f 243e 4b10 733e 2b6c 8cbe 51d9 913e
00000110: f1f6 8c3c b393 8dbe f01d 4d3e 1adf be3e
00000120: 04cd 383f ad41 813d c278 a1bc d9d9 893e
00000130: 497d 0b3e 954b c73d 9731 833e 0337 e2bd
00000140: 390b 99bd c64b 133e 9f14 c53d 2072 08bd
00000150: 54ae b6bd 0d0f a53e f422 583e 61d2 30be
00000160: a5a3 b3bd 8b50 9b3e 7a94 36be 8cea 4fbd
00000170: 9a53 3dbe 2048 70be 2843 82be 5d55 ebbd
00000180: 9d73 063e 8a61 003e 9191 b0be a101 893d
00000190: 61de 37be fb89 33be 89c3 2abe 48ae 4ebe
000001a0: 6981 3dbe e917 debd f27e 66bd a68f 3b3e
000001b0: 5bf4 68be 22c0 bcbd e8c4 f33e 00c4 a8be
000001c0: e60f 5fbe 1f1d da3e 68fd 18be ea4d 763d
000001d0: 6ab9 29bd a426 943c 4df7 c3bd d120 533e
000001e0: 29f6 703c d60f 15be 6104 5bbe 3bad dc3d
000001f0: a017 00bd 9294 88bc 48a0 123d f9f7 26be
00000200: 02d9 253e e5f9 113d 0148 873e 0682 5a3e
00000210: 2e7f bd3d c897 ae3d ba86 a33e c2dc 0a3e
00000220: cca8 963e 4667 a43e 4f42 623e c8e5 0d3f
00000230: 258c bb3e b48c 0e3e 892b 4fbd acb5 443d
00000240: 8370 a23d bf27 503e a9d8 6b3d d192 92be
00000250: 0350 353e 0f6d 043f 93ed c33c f183 debd
00000260: 5517 953e 3cf8 a9be 516e a2bd 1f12 0dbf
00000270: 449e 0dbe 55d7 e23c 18dc 013d d21b 88bd
00000280: a458 58bc 148c bd3e a7b1 8f3e ab67 c23e
00000290: eebc 4ebd cd77 913e c407 78be 6227 a03d
000002a0: 1c2d 0ebe a3db d3be d54e b73d 4891 38be
000002b0: 0188 81be 5d35 10bd 37e3 21bd 3c35 dfbd
000002c0: 19e1 80be ae47 d63e 17c0 533e 539f 90be
000002d0: e125 5b3d 9f75 273e d440 9e3d 40c5 053e
000002e0: 3678 e43d 1f52 f2bb cd93 073e ba5b dfbd
000002f0: 4ccd c0bd ce4f 853e 8386 9f3d 94ce acbc
00000300: 9c7e a63e 427f 27be 18a8 a6bc 094d 95be
00000310: 2951 44be 9fae b83e dc00 3b3e 2b75 523e
00000320: c8d7 6fbe 353f 55be 9bbf 12be 09d2 91be
00000330: e16d 1d3d 9c73 95ba 343f d0bd 55e8 833d
00000340: b578 1bbc 7003 8b3d c408 7d3e 1dc6 423e
00000350: 781d 6ebe 17c3 a5bd 50a8 2b3e 364f dcbd
00000360: 03bb 883c fbee a03c 3f4f 1cbe 0a2c f2bd
00000370: 64c2 04be dd73 973e ce85 99be 6e07 b63e
00000380: 578a 003e ca21 b3bd 6018 ea3d bb53 ed3d
00000390: b3c2 31be ff5a ecbb fa89 293d 9ca8 96bc
000003a0: e80b 8b3e 8eee b43e 3744 a03e 467f 193e
000003b0: 96c4 81bd 1cf0 bc3e 704c a83e c023 86be
000003c0: bab1 d23e 5a9d bf3d 685c af3e 86de 7abe
000003d0: c8ba 543d cc3c 973e 284f dc3d 1421 f9bd
000003e0: 753d c0bc 9852 aa3e c5a5 bc3e 9ad2 93be
000003f0: 0372 fd3d c9df da3e e715 953d 12de da3e

layer2.0.conv2.bias f4 [9]
-0.03982823 -5.6412973e-05 0.34130448 -0.13356724 0.23253793 0.028319536 0.1768511 0.15850289
-0.04404643
00000000: ed22 23bd f89c 6cb8 76bf ae3e dac5 08be
00000010: 6c1e 6e3e 5ffe e73c 7418 353e 954e 223e
00000020: 086a 34bd

layer2.0.bn2.weight f4 [9]
0.97054285 1.0525401 1.0043685 1.3764119 1.1829015 1.0479728 1.0179797 1.073844
0.94882494
00000000: 7f75 783f a2b9 863f 268f 803f 442e b03f
00000010: 5169 973f f923 863f 294d 823f b873 893f
00000020: 31e6 723f

layer2.0.bn2.bias f4 [9]
0.17326316 0.020081082 0.17675748 0.058169406 0.05846052 0.10130907 0.10500653 -0.104579575
0.16805437
00000000: e66b 313e 1581 a43c eaff 343e 0b43 6e3d
00000010: 4c74 6f3d 217b cf3d aa0d d73d d12d d6bd
00000020: 7216 2c3e

layer2.0.bn2.running_mean f4 [9]
1.4935347 0.8080624 0.84002006 0.106127135 2.2878323 0.30623743 -0.7518808 -0.21556182
1.4761606
00000000: 252c bf3f 2ddd 4e3f 8e0b 573f 2f59 d93d
00000010: d86b 1240 27cb 9c3e 437b 40bf 3dbc 5cbe
00000020: d5f2 bc3f

layer2.0.bn2.running_var f4 [9]
2.7094734 2.4902768 1.9180934 2.8658617 4.2494826 3.0580246 2.0934598 3.1521175
3.3581512
00000000: 0368 2d40 b260 1f40 1684 f53f 476a 3740
00000010: c3fb 8740 adb6 4340 3ffb 0540 4bbc 4940
00000020: f3eb 5640

layer2.0.downsample.0.weight f4 [9, 7, 1, 1]
-0.681442 0.9578256 0.107368484 -1.2438134 -0.1323452 -0.11954558 -0.5947182 -0.005848566
0.16557322 0.23043668 -0.23772125 -0.50528246 -0.1655766 -0.5894256 -0.18040104 -0.6601449
0.089163266 -0.057517283 0.24061455 -0.98966503 0.059284925 -0.1734003 -0.8451197 -0.9977962
-0.07277002 -0.45404336 -1.1577936 0.23275596 -0.6042868 0.23888004 -1.4558688 0.0958357
-0.4928797 -0.11307659 -0.3413163 0.4253471 0.27195078 -0.18257192 -0.56560254 -0.46027747
-1.2701714 0.16727002 -0.80323786 -0.5441225 0.0791789 0.24462126 0.605534 0.8733978
0.0009828809 -0.65609264 -0.79631907 -0.4837378 1.0215042 -0.2688965 -0.20209724 -0.56198454
0.6546691 0.7533409 0.78738266 0.7729253 0.2457062 -0.17133658 -0.22093585
00000000: fc72 2ebf 0f34 753f 02e4 db3d 4735 9fbf
00000010: 8085 07be 50d4 f4bd 743f 18bf 54a5 bfbb
00000020: 078c 293e 98f7 6b3e 336d 73be 315a 01bf
00000030: ea8c 29be 99e4 16bf 0dbb 38be 42ff 28bf
00000040: 3b9b b63d 3e97 6bbd a963 763e b05a 7dbf
00000050: c0d4 723d d98f 31be c459 58bf 926f 7fbf
00000060: 7308 95bd 5f78 e8be 9532 94bf 9457 6e3e
00000070: 8ab2 1abf f89c 743e e959 babf 8245 c43d
00000080: ba5a fcbe b394 e7bd 03c1 aebe 18c7 d93e
00000090: 223d 8b3e 22f4 3abe 54cb 10bf 7da9 ebbe
000000a0: fa94 a2bf d548 2b3e ffa0 4dbf 9d4b 0bbf
000000b0: 8c28 a23d ff7d 7a3e 4704 1b3f 0097 5f3f
000000c0: 03d4 803a b0f5 27bf 91db 4bbf 7bac f7be
000000d0: a6c0 823f cdac 89be 94f2 4ebe 38de 0fbf
000000e0: 6598 273f f3da 403f e991 493f 6fde 453f
000000f0: 689a 7b3e db72 2fbe 023d 62be

layer2.0.downsample.0.bias f4 [9]
-0.2768635 0.042845294 -0.20344475 -0.2780094 -0.024635682 0.10802549 -0.36198115 0.0030530477
0.038988885
00000000: 0dc1 8dbe 8c7e 2f3d d253 50be 4057 8ebe
00000010: c5d0 c9bc 783c dd3d 9855 b9be a415 483b
00000020: cfb2 1f3d

layer2.0.downsample.1.weight f4 [9]
0.9239998 0.73230374 1.1104954 0.7975036 0.9734415 0.9840138 0.80897945 1.3709614
0.60564697
00000000: 408b 6c3f 4278 3b3f b724 8e3f 3229 4c3f
00000010: 7633 793f 54e8 7b3f 4719 4f3f aa7b af3f
00000020: ae0b 1b3f

layer2.0.downsample.1.bias f4 [9]
0.17326316 0.020081082 0.17675748 0.058169406 0.05846052 0.10130907 0.10500653 -0.104579575
0.16805437
00000000: e66b 313e 1581 a43c eaff 343e 0b43 6e3d
00000010: 4c74 6f3d 217b cf3d aa0d d73d d12d d6bd
00000020: 7216 2c3e

layer2.0.downsample.1.running_mean f4 [9]
-3.149235 -1.7168604 -2.7518475 -5.9419484 -4.530818 -2.433353 0.12739754 -3.497736
4.5408897
00000000: 118d 49c0 15c2 dbbf 451e 30c0 7124 bec0
00000010: 76fc 90c0 0ebc 1bc0 8074 023e e8da 5fc0
00000020: f84e 9140

layer2.0.downsample.1.running_var f4 [9]
5.925281 1.5054865 3.869975 8.887632 10.304814 8.462015 5.780616 4.231512
4.3153825
00000000: e79b bd40 c8b3 c03f acad 7740 be33 0e41
00000010: 85e0 2441 6a64 0741 cefa b840 8c68 8740
00000020: 9d17 8a40
