best_model_conv_color.pt (torch, 202126 bytes, 140 tensors)

conv1.weight f4 [7, 3, 3, 3]
0.24640736 -0.0059427745 0.18027762 0.1580901 -0.007564198 -0.19907765 -0.016540231 -0.0414884
-0.25071993 0.06685 0.24951096 0.007898222 0.052887164 -0.116334945 -0.2168478 0.14092728
-0.21601826 -0.24675964 -0.098617226 0.058561374 -0.06636381 0.031516824 0.013768486 0.07639822
-0.049436715 0.1907993 0.05107628 0.079707436 0.1367571 -0.0007954269 -0.10342345 0.33970597
-0.09958873 -0.22372562 0.13012102 -0.16759734 0.04292694 0.3145821 0.0230614 -0.11954454
0.20123014 0.019841904 -0.09114954 -0.038104936 -0.21371722 0.22848848 0.2847696 0.28565666
-0.25271055 0.14886846 0.28753436 -0.5525285 -0.24575876 0.019302242 -0.16606362 0.10582711
0.05263928 -0.017567527 -0.07184743 -0.06351222 -0.06585575 -0.3309385 -0.14604934 0.20627539
0.122237965 0.32097596 0.07613701 -0.021217102 0.2897602 0.08950082 0.21135616 -0.06603789
0.2403147 0.19172278 0.08205784 0.06950713 0.30167446 -0.20988087 0.26343945 -0.21779597
-0.22698867 -0.13532056 0.1406382 0.12044838 0.091038354 0.041946277 0.114558846 0.05802297
0.00045843166 0.20138814 0.24824253 0.10916808 -0.109313495 -0.00577994 -0.112833455 0.033664934
-0.237058 0.14486533 -0.08838606 0.32820413 -0.0005725513 -0.3932993 0.27811322 0.21742615
-0.5048706 -0.17152038 -0.075973265 -0.3207723 -0.24562004 -0.14112246 -0.26630265 -0.12911114
-0.18246573 -0.3052542 0.14648744 -0.11842521 0.044025134 0.05250946 -0.034147613 -0.020477248
0.09708708 -0.060684733 0.17631076 0.06710453 0.25801805 0.33360857 -0.017265247 0.046126645
0.07461571 -0.012606619 -0.09396476 -0.11647445 -0.010519751 -0.054651685 0.22971551 0.06851955
-0.16342002 0.044268433 -0.1287535 -0.05602721 0.020453341 0.013274563 -0.106178895 -0.087619126
-0.20532759 0.09583724 -0.032828882 -0.07941409 -0.22138593 -0.23876351 0.08299083 -0.18990578
-0.05972822 0.14940988 -0.015215736 0.15999874 -0.02782105 0.23719193 0.103951514 0.13636793
0.15959048 0.1421722 -0.046301585 -0.16746306 -0.18561442 0.006166783 0.020273723 -0.018336926
-0.004643007 0.0044174213 0.05809578 0.17921254 0.17636056 -0.055387083 0.0864311 0.25378132
-0.13517806 0.17398915 -0.013989468 -0.024694733 -0.13909341 -0.037248753 -0.0795368 0.3530446
0.34200248 -0.07885903 -0.10408793 -0.013555585 -0.42942262
00000000: 3652 7c3e 9bbb c2bb b29a 383e 5fe2 213e
00000010: 18dd f7bb 03db 4bbe 617f 87bc beef 29bd
00000020: 5d5e 80be a7e8 883d cd7f 7f3e 8b67 013c
00000030: 36a0 583d 0441 eebd 5a0d 5ebe 3e4f 103e
00000040: e433 5dbe 8fae 7cbe d4f7 c9bd 0dde 6f3d
00000050: c0e9 87bd c917 013d 3795 613c ac76 9c3d
00000060: 277e 4abd e460 433e 5d35 513d a73d a33d
00000070: 0e0a 0c3e 3284 50ba accf d3bd f1ed ad3e
00000080: 2df5 cbbd 5418 65be 723e 053e a39e 2bbe
00000090: 29d4 2f3d e810 a13e 43eb bc3c c5d3 f4bd
000000a0: 460f 4e3e 7d8b a23c 9cac babd ec13 1cbd
000000b0: b0d8 5abe e2f8 693e 52cd 913e 9741 923e
000000c0: 4763 81be f970 183e b437 933e 8272 0dbf
000000d0: 2fa8 7bbe bc1f 9e3c 950c 2abe e2bb d83d
000000e0: 499c 573d c6e9 8fbc bf24 93bd b212 82bd
000000f0: 61df 86bd c570 a9be f58d 15be db39 533e
00000100: e657 fa3d f656 a43e b8ed 9b3d 7dcf adbc
00000110: 735b 943e 354c b73d c06d 583e e03e 87bd
00000120: 0f15 763e fa52 443e f10d a83d c159 8e3d
00000130: 1375 9a3e 03eb 56be 89e1 863e e805 5fbe
00000140: b86f 68be 7991 0abe 7603 103e a4ad f63d
00000150: 5172 ba3d dccf 2b3d d49d ea3d 7ea9 6d3d
00000160: a859 f039 b138 4e3e 4a33 7e3e 8493 df3d
00000170: c1df dfbd a765 bdbb 3a15 e7bd 3ee4 093d
00000180: 55bf 72be 9457 143e c003 b5bd 5f0a a83e
00000190: 4417 16ba 875e c9be db64 8e3e f6a4 5e3e
000001a0: 333f 01bf 0aa3 2fbe df97 9bbd 443c a4be
000001b0: d283 7bbe 6882 10be d258 88be b635 04be
000001c0: 4cd8 3abe 474a 9cbe ce00 163e eb88 f2bd
000001d0: b353 343d 2914 573d 5ede 0bbd e7bf a7bc
000001e0: 97d5 c63d 8e90 78bd cf8a 343e 1a6e 893d
000001f0: f11a 843e bece aa3e d96f 8dbc 4bef 3c3d
00000200: 1fd0 983d fe8b 4ebc 9970 c0bd 288a eebd
00000210: 095b 2cbc 72da 5fbd 8b3a 6b3e fa53 8c3d
00000220: 9457 27be d152 353d f5d7 03be ca7c 65bd
00000230: c48d a73c 8d7d 593c 5274 d9bd a871 b3bd
00000240: 6541 52be 5146 c43d 9477 06bd dba3 a2bd
00000250: feb2 62be 6c7e 74be 19f7 a93d a976 42be
00000260: 94a5 74bd e7fe 183e 6c4b 79bc b6d6 233e
00000270: f8e8 e3bc 71e2 723e 88e4 d43d 09a4 0b3e
00000280: b06b 233e 9795 113e bba6 3dbd 707b 2bbe
00000290: b511 3ebe ba12 ca3b 1415 a63c 5237 96bc
000002a0: 5e24 98bb 04c0 903b d7f5 6d3d 7e83 373e
000002b0: dd97 343e 91dd 62bd ca02 b13d a0ef 813e
000002c0: 1e6c 0abe 362a 323e 1534 65bc 9c4c cabc
000002d0: 816e 0ebe 2692 18bd 31e4 a2bd 43c2 b43e
000002e0: f31a af3e d880 a1bd 0d2c d5bd 3f18 5ebc
000002f0: 48dd dbbe

conv1.bias f4 [7]
0.1659864 0.14976108 0.050528705 -0.18636714 -0.09096564 -0.08009258 -0.39381903
00000000: 57f8 293e f85a 193e 30f7 4e3d 07d7 3ebe
00000010: 324c babd 9407 a4bd a6a2 c9be

bn1.weight f4 [7]
1.0477371 0.9976378 0.93970144 0.8555175 0.7996884 1.2077329 1.0096934
00000000: 401c 863f 3165 7f3f 4690 703f 3203 5b3f
00000010: 61b8 4c3f fe96 9a3f a23d 813f

bn1.bias f4 [7]
0.024206765 0.5658805 1.2196852 -0.1852805 0.096990086 0.6083266 0.40304688
00000000: 444d c63c 8bdd 103f a51e 9c3f 2cba 3dbe
00000010: bda2 c63d 4bbb 1b3f 295c ce3e

bn1.running_mean f4 [7]
0.22076483 0.16210866 0.054696176 -0.2584113 -0.15354727 0.1101487 -0.4743026
00000000: 2d10 623e d0ff 253e 1909 603d 7c4e 84be
00000010: 7f3b 1dbe a495 e13d cad7 f2be

bn1.running_var f4 [7]
0.5355616 1.9420294 2.9323523 0.7641199 0.8693674 0.5699618 0.51671517
00000000: 911a 093f 6b94 f83f a9ab 3b40 5d9d 433f
00000010: dd8e 5e3f 04e9 113f 7247 043f

layer1.0.conv1.weight f4 [7, 7, 3, 3]
-0.04063557 -0.1267944 -0.17617065 -0.022128161 0.061069544 -0.11703436 -0.0338535 0.15407714
-0.0859621 -0.015941752 0.10176004 0.13302399 0.11989548 0.11892473 -0.073669516 -0.036253996
0.11909621 -0.0379597 0.22764608 0.022193573 -0.021919163 0.04458451 0.19568445 0.18566166
0.094253086 0.23707643 0.07307726 -0.04197856 0.19843686 0.14647035 -0.101190746 0.21682161
0.065178275 -0.036421858 0.026602497 0.117173806 -0.009452733 -0.098257884 -0.0048887096 0.16528527
0.08367086 -0.07681072 0.24183223 0.16682349 -0.08507227 0.12443398 0.071546815 -0.06423682
0.37428826 0.13773786 -0.374106 0.19379778 0.16857623 -0.29509982 -0.106710784 0.15541157
0.121264525 0.120313995 0.32961172 0.103506476 0.098387524 0.15366514 0.10523026 0.12194154
0.09645687 -0.08198409 0.08974353 -0.50898665 0.12736546 0.036153715 -0.10485742 -0.16269109
-0.003398071 -0.036163893 0.1437102 -0.0670644 -0.33146447 -0.311309 0.04366409 0.21085794
-0.18846329 -0.12740757 -0.17326504 -0.0456695 0.058673616 -0.3230621 0.14318031 0.39543965
0.30570364 0.31918067 -0.22110657 0.002232225 -0.178275 0.04691133 -0.096640944 -0.11556506
0.11188742 -0.17683917 -0.08793465 0.17199928 0.18270037 1.9490486e-05 -0.014918621 0.030476447
-0.082290135 0.067327976 -0.19598988 -0.11393309 0.16857904 0.12232685 0.016370257 0.105286285
-0.26942 -0.2776038 0.21582851 -0.22482568 -0.1439448 -0.033512414 -0.020901464 0.027255759
-0.10275213 -0.2689395 0.23384148 -0.13792358 -0.34218 -0.02726317 -0.21747747 -0.22562
-0.014552445 -0.16975693 -0.20590034 0.044803575 0.0028544196 -0.1401248 0.04663533 -0.05572609
-0.0013535633 -0.18126817 0.17961916 0.18675263 -0.07549658 0.13085888 0.24145886 -0.010583943
-0.18196891 -0.1696323 -0.19619603 -0.02232624 0.16700566 0.02073892 0.10422226 0.264398
-0.075340755 0.13671559 0.013812324 -0.03729101 0.012493896 0.14953569 0.0154468715 0.047585513
-0.09519474 -0.14607011 -0.012590374 0.03420876 -0.013451822 -0.17642948 -0.08541194 -0.036858797
-0.12568617 -0.057000965 0.043776885 -0.1900535 -0.35992086 0.018798402 0.026485309 -0.19707659
-0.12820046 0.35729474 -0.06568151 0.14730869 -0.24694484 -0.16015019 0.008630482 -0.19360253
0.113234766 0.181774 0.00013478854 -0.092427716 -0.05050054 -0.04206794 -0.11633041 -0.15397975
-0.019336838 0.06377222 0.0020474389 -0.26256076 -0.05970298 0.11561999 -0.05204286 -0.2571542
0.0039047683 0.17482921 0.06062366 -0.13205048 0.16702838 0.16553894 -0.091221325 -0.091064826
-0.12923864 -0.41107923 0.2920803 0.034778718 -0.010774122 0.09372139 0.16658784 -0.18503352
0.021800792 0.10624019 -0.08566228 -0.032155767 0.17240676 0.109390475 -0.15883328 0.10637428
0.011152662 0.022723012 0.15088584 0.14627706 0.12759633 0.089518644 0.25355974 -0.0013063801
-0.04512023 -0.12553021 0.053077396 -0.22004537 -0.38952935 0.07510104 -0.04995726 -0.19720446
-0.066256136 0.058691066 -0.079898536 0.018852768 0.16337408 -0.24166085 0.23803689 0.5724398
0.20463128 -0.33827922 0.008401064 0.09111655 -0.13567518 0.0483092 -0.12121828 -0.24573717
00000000: 7c71 26bd 64d6 01be 1466 34be 1e46 b5bc
00000010: 0f24 7a3d b6af efbd f8a9 0abd 66c6 1d3e
00000020: e60c b0bd 4798 82bc 9167 d03d 7137 083e
00000030: c38b f53d cf8e f33d 0be0 96bd 127f 14bd
00000040: b7e8 f33d a17b 1bbd 0e1c 693e 4ccf b53c
00000050: d18f b3bc 3f9e 363d 8161 483e 171e 3e3e
00000060: c307 c13d 2ac4 723e 88a9 953d b6f1 2bbd
00000070: 0833 4b3e 53fc 153e 183d cfbd 7c06 5e3e
00000080: 307c 853d 162f 15bd 7bed d93c d2f8 ef3d
00000090: a3df 1abc 6e3b c9bd 7831 a0bb 8b40 293e
000000a0: a15b ab3d f04e 9dbd dea2 773e c7d3 2a3e
000000b0: 5f3a aebd 3ed7 fe3d 2387 923d 988e 83bd
000000c0: b6a2 bf3e 270b 0d3e d28a bfbe ed72 463e
000000d0: 3f9f 2c3e 5317 97be 2f8b dabd 3624 1f3e
000000e0: 8959 f83d 2f67 f63d dec2 a83e 34fb d33d
000000f0: 667f c93d 655a 1d3e f682 d73d 7cbc f93d
00000100: 2e8b c53d 46e7 a7bd 75cb b73d f34c 02bf
00000110: 176c 023e eb15 143d 7dbf d6bd 7e98 26be
00000120: 2cb2 5ebb 9720 14bd c428 133e 0f59 89bd
00000130: b6b5 a9be e563 9fbe 1ed9 323d 25eb 573e
00000140: 85fc 40be 2177 02be 646c 31be f10f 3bbd
00000150: bf53 703d 6568 a5be dc9d 123e 1177 ca3e
00000160: 3085 9c3e a66b a33e c369 62be 854a 123b
00000170: b98d 36be 1826 403d b0eb c5bd 60ad ecbd
00000180: 3b25 e53d 5415 35be 1517 b4bd 9420 303e
00000190: ce15 3b3e 807f a337 3b6d 74bc bea9 f93c
000001a0: bb87 a8bd 40e3 893d 92b1 48be c055 e9bd
000001b0: fc9f 2c3e 8086 fa3d eb1a 863c 56a0 d73d
000001c0: 6bf1 89be 1622 8ebe 2602 5d3e b438 66be
000001d0: 4466 13be 5044 09bd 8c39 abbc 7847 df3c
000001e0: b56f d2bd 70b2 89be 2474 6f3e d73b 0dbe
000001f0: 3832 afbe 0357 dfbc 6ab2 5ebe ee08 67be
00000200: 616d 6ebc c3d4 2dbe 8ad7 52be f483 373d
00000210: 3711 3b3b e07c 0fbe b004 3f3d 0a41 64bd
00000220: 0c6a b1ba 5d9e 39be 16ee 373e 153c 3f3e
00000230: f39d 9abd dfff 053e fe40 773e 4668 2dbc
00000240: 0f56 3abe 17b4 2dbe 9de7 48be 85e5 b6bc
00000250: 8803 2b3e abe4 a93c 7b72 d53d 2d5f 873e
00000260: 414c 9abd 2cff 0b3e 164d 623c 75be 18bd
00000270: 33b3 4c3c e21f 193e e014 7d3c 07e9 423d
00000280: 76f5 c2bd 6793 15be db47 4ebc 7c1e 0c3d
00000290: 0865 5cbc eea9 34be 75ec aebd 40f9 16bd
000002a0: e0b3 00be d879 69bd 644f 333d 629d 42be
000002b0: 8c47 b8be 1bff 993c b8f7 d83c 72ce 49be
000002c0: fb46 03be 56ef b63e 0784 86bd 17d8 163e
000002d0: 1cdf 7cbe 69fe 23be dd66 0d3c be3f 46be
000002e0: a1e7 e73d f722 3a3e 0656 0d39 be4a bdbd
000002f0: a7d9 4ebd 6f4f 2cbd a33e eebd deac 1dbe
00000300: 4a68 9ebc 029b 823d 532e 063b 5d6e 86be
00000310: 1d8b 74bd 2cca ec3d e52a 55bd b7a9 83be
00000320: 24e7 7f3b 6e06 333e 8450 783d 3e38 07be
00000330: 7d09 2b3e 0a83 293e 3fd2 babd 3280 babd
00000340: 2257 04be fa78 d2be 8d8b 953e 2174 0e3d
00000350: f185 30bc 00f1 bf3d 0196 2a3e 6d79 3dbe
00000360: 9397 b23c 7594 d93d b56f afbd c4b5 03bd
00000370: 668b 303e 1d08 e03d 31a5 22be c2da d93d
00000380: a8b9 363c 9c25 ba3c d181 1a3e a7c9 153e
00000390: 9da8 023e 8d55 b73d 95d2 813e d83a abba
000003a0: fecf 38bd fe8a 00be af67 593d 9353 61be
000003b0: 6470 c7be 93ce 993d fc9f 4cbd f7ef 49be
000003c0: 4cb1 87bd 0b66 703d d8a1 a3bd 1f71 9a3c
000003d0: 894b 273e f175 77be f1bf 733e 6a8b 123f
000003e0: dd8a 513e ef32 adbe 9ea4 093c 509b ba3d
000003f0: 6fee 0abe dedf 453d 4a41 f8bd 86a2 7bbe

layer1.0.conv1.bias f4 [7]
0.00940555 0.08228566 -0.08070744 0.033615567 0.4386899 0.48410797 0.10809587
00000000: bc19 1a3c 6285 a83d f149 a5bd 7ab0 093d
00000010: f69b e03e 00dd f73e 5e61 dd3d

layer1.0.bn1.weight f4 [7]
0.808185 1.1416366 1.0929935 1.1523175 0.9179848 0.9503372 0.89988405
00000000: 36e5 4e3f 2621 923f 36e7 8b3f 247f 933f
00000010: 0d01 6b3f 4c49 733f cd5e 663f

layer1.0.bn1.bias f4 [7]
0.09922229 -0.17406158 -0.10647193 0.11482333 -0.2127087 -0.21016955 -0.012159605
00000000: 0e35 cb3d 333d 32be f50d dabd 7e28 eb3d
00000010: 4fd0 59be b036 57be 1439 47bc

layer1.0.bn1.running_mean f4 [7]
3.1190681 -1.0595453 -1.0630964 -0.124131665 -2.1713235 -0.6318428 -0.8955859
00000000: d09e 4740 2e9f 87bf 8b13 88bf be38 febd
00000010: f7f6 0ac0 73c0 21bf 1e45 65bf

layer1.0.bn1.running_var f4 [7]
4.1835566 2.434459 2.1599631 2.9918349 3.4453275 3.0232766 1.8742735
00000000: b2df 8540 2dce 1b40 d63c 0a40 397a 3f40
00000010: 3f80 5c40 5d7d 4140 32e8 ef3f

layer1.0.conv2.weight f4 [7, 7, 3, 3]
0.07561993 0.050703913 -0.29243582 0.115098774 -0.037321143 -0.29503593 -0.005836829 -0.049278177
-0.08751098 0.30952585 -0.11099497 0.29637048 -0.13043843 -0.111510545 -0.010659411 0.026995922
0.08308965 -0.038099326 0.13025196 0.015941083 0.07967623 0.13003002 -0.2924808 -0.21634252
-0.09911525 -0.09020551 0.089598924 -0.1195342 -0.109380305 -0.3444719 -0.084623165 -0.28649756
-0.34517843 -0.018688127 -0.0774223 -0.16158739 0.17190556 0.042823702 -0.014743339 -0.10109531
-0.08365211 0.10030812 0.07153575 -0.017567035 0.14083527 0.16685955 -0.015961021 0.09007829
-0.17082913 -0.11000467 0.009726126 -0.051715612 -0.21975602 -0.14966188 0.1695136 0.17486143
0.13936038 -0.028894285 0.013730357 0.05845563 0.029333947 0.093362786 0.055476032 -0.15779755
-0.16205259 -0.114157915 0.080133624 -0.2059013 -0.084235236 0.09927136 0.068621606 0.14308974
-0.02302513 0.064628705 -0.060319755 -0.13292442 -0.44391018 -0.29520866 0.027169114 -0.0015164643
0.020430045 0.02514869 -0.16719864 -0.05811723 -0.018367087 -0.10324516 -0.348332 -0.035879176
-0.15335093 -0.2537628 -0.010502607 -0.12450293 -0.0599962 -0.05302758 -0.17250875 -0.06986711
0.1025528 -0.016536893 0.086110406 0.26029614 0.010994253 -0.18141294 0.19114734 0.019097243
0.107280515 0.06871564 0.16159785 0.2787754 0.31663227 0.29938567 0.09588736 0.112381384
-0.2117066 -0.27766365 0.091024235 -0.15563206 0.103624634 -0.0008237606 -0.07037611 -0.04634696
0.03749484 -0.11421385 -0.0052803056 0.025250891 -0.005662759 -0.024360359 -0.19068332 -0.14823794
-0.04132711 -0.038097437 -0.02615998 -0.16363497 -0.094304085 -0.025307752 0.009150242 0.2842655
-0.05966626 0.0028037964 0.038538728 -0.38179085 -0.06138489 0.10912646 -0.14325143 -0.1676184
0.0196126 -0.12791196 -0.14832728 0.12793346 -0.14442515 -0.37690607 0.06351402 -0.032623075
-0.29872403 -0.07161753 -0.13911688 -0.16551235 -0.0045039854 -0.00013856466 -0.025339458 -0.11596705
0.00072578836 0.05830247 0.21045527 -0.013321968 0.16713466 -0.05420064 0.101702064 0.06869099
0.033397388 0.051627435 0.08940796 0.1259949 0.045115538 0.02235285 -0.06829351 0.111858405
-0.20375344 -0.3704387 -0.3063141 -0.08533621 0.055846605 -0.013409567 0.020976521 -0.12781195
0.01856435 0.004584929 0.044416707 0.011586464 0.015655624 0.058863923 -0.020202631 0.043295432
-0.09570438 -0.10312524 0.0075526736 -0.19375569 0.0058088466 0.14394128 0.23706569 0.052527085
0.06096024 -0.07911012 -0.25204328 -0.17161559 -0.10885094 0.09350418 0.2566632 0.06799295
0.21835242 -0.15394554 -0.056068517 0.13192068 -0.16453691 0.056262292 0.061800998 -0.07679462
0.06708232 -0.04937208 -0.007820276 -0.32954606 0.14561564 -0.042636145 -0.23598382 -0.08846132
-0.52173775 0.009946639 -0.06296957 -0.1728736 0.24955592 0.2582616 0.19476767 0.037370328
0.25692555 0.18516177 -0.010989709 -0.048935104 -0.117278166 0.052526534 0.04033961 -0.10472973
0.06449338 0.2733705 -0.076820865 -0.27696115 -0.24554573 -0.0634014 -0.13969345 -0.0032468452
0.27950978 -0.0155830365 0.18199053 0.2647132 -0.05452806 -0.09386261 -0.06744568 -0.17398123
00000000: 9fde 9a3d e8ae 4f3d 26ba 95be e8b8 eb3d
00000010: 0ede 18bd f30e 97be df42 bfbb ead7 49bd
00000020: f538 b3bd 2c7a 9e3e 5551 e3bd dfbd 973e
00000030: a791 05be a45f e4bd cfa4 2ebc 8d26 dd3c
00000040: e82a aa3d 0a0e 1cbd c560 053e e096 823c
00000050: 4b2d a33d 9726 053e 0bc0 95be e588 5dbe
00000060: f0fc cabd abbd b8bd a47f b73d 59ce f4bd
00000070: c802 e0bd 9f5e b0be e94e adbd cfaf 92be
00000080: 3abb b0be d817 99bc 958f 9ebd 2a77 25be
00000090: 0308 303e e867 2f3d 0c8e 71bc 0f0b cfbd
000000a0: cc51 abbd 586e cd3d 5681 923d bee8 8fbc
000000b0: 1f37 103e 3bdd 2a3e b0c0 82bc f77a b83d
000000c0: d5ed 2ebe 214a e1bd 545a 1f3c c0d3 53bd
000000d0: b907 61be f740 19be f994 2d3e e00e 333e
000000e0: 7db4 0e3e b5b3 ecbc 4bf5 603c 2c6f 6f3d
000000f0: bf4d f03c fd34 bf3d d63a 633d ae95 21be
00000100: 1df1 25be a0cb e9bd 191d a43d cad7 52be
00000110: 8683 acbd c84e cb3d 7c89 8c3d 1e86 123e
00000120: 339f bcbc 0e5c 843d d911 77bd 571d 08be
00000130: 3248 e3be 9725 97be c391 de3c 19c4 c6ba
00000140: e95c a73c a004 ce3c 1f36 2bbe 550c 6ebd
00000150: 9376 96bc 3372 d3bd 9258 b2be 0bf6 12bd
00000160: 0708 1dbe 33ed 81be 2013 2cbc 64fb febd
00000170: 93be 75bd 7333 59bd 22a6 30be 7d16 8fbd
00000180: 3407 d23d 6178 87bc a75a b03d 8945 853e
00000190: 3d21 343c 50c4 39be 21bc 433e d271 9c3c
000001a0: e3b5 db3d c9ba 8c3d e879 253e a6bb 8e3e
000001b0: a01d a23e 1449 993e 9860 c43d 3628 e63d
000001c0: 9dc9 58be ee29 8ebe ea6a ba3d 035e 1fbe
000001d0: 2739 d43d a3f1 57ba 5a21 90bd 4fd6 3dbd
000001e0: 3094 193d f3e8 e9bd 6a06 adbb f5da ce3c
000001f0: aa8e b9bb 608f c7bc 7d42 43be b0cb 17be
00000200: 9e46 29bd 0f0c 1cbd 744d d6bc ed8f 27be
00000210: 8022 c1bd 3452 cfbc e6ea 153c 3f8b 913e
00000220: 9c64 74bd e6bf 373b c9da 1d3d 177a c3be
00000230: b96e 7bbd b27d df3d 81b0 12be 28a4 2bbe
00000240: 9aaa a03c 5afb 02be 1be3 17be fd00 033e
00000250: 30e4 13be d5f9 c0be a313 823d c69f 05bd
00000260: 5bf2 98be 36ac 92bd a874 0ebe 127c 29be
00000270: 2b96 93bb ab4b 11b9 b294 cfbc 2280 edbd
00000280: d542 3e3a 92ce 6e3d 9681 573e 6244 5abc
00000290: 5925 2b3e 7e01 5ebd 2c49 d03d ddad 8c3d
000002a0: b3cb 083d 4a77 533d 851b b73d cf04 013e
000002b0: 12cb 383d 531d b73c 78dd 8bbd 0516 e53d
000002c0: bea4 50be 24aa bdbe 34d5 9cbe c0c4 aebd
000002d0: 69bf 643d cdb3 5bbc f4d6 ab3c 23e1 02be
000002e0: 4414 983c 2c3d 963b 4bee 353d 27d5 3d3c
000002f0: 3940 803c 4c1b 713d fd7f a5bc 8d56 313d
00000300: a800 c4bd 5333 d3bd 6b7c f73b e467 46be
00000310: 2358 be3b 5865 133e 59c1 723e a426 573d
00000320: 72b1 793d 7d04 a2bd d10b 81be ffbb 2fbe
00000330: 3eed debd 1f7f bf3d 5c69 833e e33f 8b3d
00000340: c797 5f3e e6a3 1dbe 1aa8 65bd 3716 073e
00000350: 5d7c 28be 4a73 663d 0b23 7d3d 7f46 9dbd
00000360: 7562 893d 613a 4abd 9d20 00bc 43ba a8be
00000370: 441c 153e 3da3 2ebd bea5 71be 352b b5bd
00000380: 9b90 05bf 3af7 223c 31f6 80bd c705 31be
00000390: 968b 7f3e dd3a 843e 2d71 473e a111 193d
000003a0: bf8b 833e 0c9b 3d3e 2e0e 34bc 2d70 48bd
000003b0: 892f f0bd 1026 573d 263b 253d 8a7c d6bd
000003c0: 1b15 843d 38f7 8b3e 4254 9dbd dacd 8dbe
000003d0: 5770 7bbe 98d8 81bd cd0b 0fbe 06c9 54bb
000003e0: e81b 8f3e fe4f 7fbc ba5b 3a3e 7d88 873e
000003f0: d158 5fbd 0a3b c0bd f620 8abd 2328 32be

layer1.0.conv2.bias f4 [7]
-0.08402206 -0.19209667 -0.11547159 -0.24082632 -0.054945454 -0.02883784 0.25751305
00000000: c213 acbd fdb4 44be 5e7c ecbd 2d9b 76be
00000010: 7c0e 61bd 553d ecbc c0d8 833e

layer1.0.bn2.weight f4 [7]
0.9897656 0.94178814 0.8918795 0.9947988 0.7680317 0.6980827 0.8777738
00000000: 4761 7d3f 0719 713f 3752 643f 22ab 7e3f
00000010: ba9d 443f 8cb5 323f c9b5 603f

layer1.0.bn2.bias f4 [7]
0.11942873 0.124445 0.383799 -0.35417604 0.06852545 0.07766407 0.3468372
00000000: 0d97 f43d 05dd fe3d 4d81 c43e 9056 b5be
00000010: 1257 8c3d 570e 9f3d a594 b13e

layer1.0.bn2.running_mean f4 [7]
-0.65488285 -0.8722882 -0.91550195 -0.3540263 -1.3269637 -0.065771244 -0.16529623
00000000: 67a6 27bf 484e 5fbf 565e 6abf ef42 b5be
00000010: f2d9 a9bf 13b3 86bd 6a43 29be

layer1.0.bn2.running_var f4 [7]
1.3673613 0.6644329 0.7622933 0.59295696 2.586317 0.42259145 0.5679721
00000000: b205 af3f 4618 2a3f a725 433f 07cc 173f
00000010: 3886 2540 e85d d83e 9f66 113f

layer1.1.conv1.weight f4 [7, 7, 3, 3]
0.007878642 0.024388056 -0.12507549 0.009253334 0.35289773 0.043581177 0.17194995 0.30299965
0.0970194 0.057132512 -0.16660981 -0.0737062 0.14722319 0.21925636 0.09671126 0.21871357
0.07266568 0.19964792 0.24894756 0.18585967 0.14329253 0.16711667 0.021291431 0.24291079
0.41770902 0.17854266 0.1514925 -0.21159056 -0.012382951 -0.24200022 -0.083636865 -0.13651732
-0.15056005 -0.103281334 -0.37421337 -0.19463027 -0.09658155 -0.10318812 -0.27845165 0.019377334
-0.017956318 -0.12056171 -0.11772372 -0.044945538 -0.11100841 -0.17529398 -0.04105972 -0.43363908
0.021102501 0.1114395 0.0204724 0.30771786 0.25233895 0.14984487 0.16823085 0.22291957
0.03345685 -0.03933586 -0.00019948371 0.0025428068 -0.055938315 -0.021519367 -0.121967085 -0.10410088
0.06570964 -0.1479956 -0.122162655 -0.24722981 -0.08891402 0.022064326 0.14224695 0.07011619
0.03225869 -0.013533313 0.21391864 -0.12736672 -0.11010333 0.048995987 -0.18424782 -0.09914798
-0.07242705 0.016966617 -0.24774678 -0.10226489 -0.071123235 -0.1468822 -0.11055276 -0.14658453
-0.043541737 0.069800906 0.029958963 -0.0696938 0.22319885 -0.1169792 -0.1467482 0.09106146
-0.17577162 -0.2067285 -0.12625968 0.08038733 0.21471405 0.20308034 -0.026152708 -0.04211597
-0.084139004 -0.008232733 -0.049738847 0.035832033 0.021929754 -0.17004378 0.30626014 -0.19404308
-0.30627605 -0.06311464 0.03714099 -0.08678623 -0.00905405 0.058042407 -0.106380954 0.29175347
-0.10757502 -0.17527494 0.04772231 -0.14863312 0.011426072 -0.039100446 -0.15074311 0.29064995
0.30517104 -0.06696223 -0.22773553 -0.20053194 0.00025572974 -0.42409858 -0.23029803 0.076704405
-0.21017402 -0.01746381 0.103683144 -0.372346 0.09391263 0.05806313 -0.4097426 -0.20952667
0.04876956 0.13611665 -0.015511905 0.29778188 -0.023440907 -0.038229328 0.15938322 0.035327494
0.018218474 0.24871056 -0.15493014 -0.1333097 -0.023075853 0.020357216 -0.28296065 -0.33846107
-0.27760157 -0.08307817 -0.10478659 0.05975888 0.014056735 -0.036415037 -0.1733427 -0.008635456
-0.05199975 -0.19837749 -0.042303633 0.3666242 -0.07834111 -0.11764672 -0.15179318 -0.2484172
-0.109093495 0.018672481 -0.22483435 -0.33188754 -0.12512785 -0.08999727 -0.21683942 0.06463654
0.0020309004 0.026978018 0.11291357 -0.27872857 0.211303 -0.0588081 -0.08050154 -0.15791549
0.25530383 0.028678518 -0.056224942 0.16917883 0.0621569 -0.102596305 -0.046656415 -0.2914346
-0.2630454 -0.043369357 0.1750336 -0.11835799 0.034333475 -0.08937838 0.19756521 0.08284864
-0.037590455 0.26265013 0.009088049 0.36344808 0.37146914 -0.06596828 0.15416484 0.03393791
-0.032675564 -0.27166978 0.0024963792 0.040516395 -0.03732186 0.37526643 0.14456955 0.18770862
0.10158737 0.09310271 -0.07256852 0.07296301 -0.03715069 0.026729895 0.18232131 0.31734252
0.14656436 -0.009511293 -0.24126768 -0.2642416 0.012601222 -0.11915727 -0.33078593 -0.09925189
-0.1317319 -0.1962442 -0.08698105 0.01672696 -0.063352466 -0.06613937 -0.1694641 0.036910217
0.26386067 -0.053272754 -0.020640977 0.1890183 -0.076956406 0.11226326 -0.11991951 0.12414979
00000000: 6b15 013c 76c9 c73c ca13 00be 4c9b 173c
00000010: 03af b43e 2d82 323d a613 303e c522 9b3e
00000020: 1bb2 c63d c803 6a3d c39b 2abe 47f3 96bd
00000030: adc1 163e bd84 603e 8e10 c63d 73f6 5f3e
00000040: bed1 943d 8170 4c3e 1cec 7e3e ff51 3e3e
00000050: 47bb 123e a220 2b3e 5e6b ae3c 9bbd 783e
00000060: f5dd d53e e3d3 363e da20 1b3e 32ab 58be
00000070: dce1 4abc e8ce 77be ce49 abbd 32cb 0bbe
00000080: 6a2c 1abe 2a85 d3bd e598 bfbe 284d 47be
00000090: 8ccc c5bd 4b54 d3bd 3791 8ebe 37bd 9e3c
000000a0: 2119 93bc 0fe9 f6bd 2219 f1bd d018 38bd
000000b0: 6158 e3bd 4480 33be 3d2e 28bd f105 debe
000000c0: 27df ac3c 643a e43d bcb5 a73c 328d 9d3e
000000d0: 9232 813e ef70 193e b544 2c3e 0745 643e
000000e0: 0d0a 093d a41e 21bd 802c 51b9 38a5 263b
000000f0: 931f 65bd 6249 b0bc e1c9 f9bd d832 d5bd
00000100: c792 863d 298c 17be 6a30 fabd d029 7dbe
00000110: 8e18 b6bd 3fc0 b43c 2fa9 113e 1499 8f3d
00000120: b021 043d d4ba 5dbc 7d0d 5b3e 6c6c 02be
00000130: db7d e1bd 04b0 483d 76ab 3cbe 190e cbbd
00000140: a254 94bd 93fd 8a3c 55b1 7dbe 4170 d1bd
00000150: 0fa9 91bd 4a68 16be 7c69 e2bd 411a 16be
00000160: d258 32bd c7f3 8e3d 806c f53c 9fbb 8ebd
00000170: 3d8e 643e ca92 efbd 2945 16be 6e7e ba3d
00000180: 7afd 33be a3b0 53be 384a 01be 1da2 a43d
00000190: 00de 5b3e 4bf4 4f3e 343e d6bc cc81 2cbd
000001a0: 1251 acbd 96e2 06bc f6ba 4bbd 9cc4 123d
000001b0: 07a6 b33c f51f 2ebe 21ce 9c3e 3bb3 46be
000001c0: 37d0 9cbe 4042 81bd 2721 183d fbbc b1bd
000001d0: 7057 14bc e0bd 6d3d 42de d9bd b660 953e
000001e0: 4b50 dcbd 467b 33be 7878 433d 4833 18be
000001f0: 6b34 3b3c ca27 20bd 675c 1abe 12d0 943e
00000200: 613f 9c3e 7e23 89bd 8133 69be 3f58 4dbe
00000210: 7713 8639 7323 d9be 3fd3 6bbe 3317 9d3d
00000220: dc37 57be 4410 8fbc d457 d43d 23a4 bebe
00000230: 4455 c03d 9bd3 6d3d c8c9 d1be 298e 56be
00000240: 97c2 473d 2a62 0b3e a525 7ebc de76 983e
00000250: 2507 c0bc 5b96 1cbd 5b35 233e 90b3 103d
00000260: e93e 953c fbad 7e3e 02a6 1ebe 5782 08be
00000270: 9209 bdbc 2dc4 a63c 38e0 90be c54a adbe
00000280: cb21 8ebe e324 aabd 5a9a d6bd bac5 743d
00000290: 384e 663c ef27 15bd c080 31be ba7b 0dbc
000002a0: b1fd 54bd 7823 4bbe 9346 2dbd 2bb6 bb3e
000002b0: 4e71 a0bd c3f0 f0bd ac6f 1bbe 1461 7ebe
000002c0: 696c dfbd 08f7 983c fa3a 66be 2aed a9be
000002d0: 8421 00be 7d50 b8bd 270b 5ebe 2a60 843d
000002e0: db18 053b 0101 dd3c 3b3f e73d 83b5 8ebe
000002f0: d05f 583e c3e0 70bd fedd a4bd 99b4 21be
00000300: 2fb7 823e 36ef ea3c 204c 66bd 373d 2d3e
00000310: 3c98 7e3d 031e d2bd cc1a 3fbd ea36 95be
00000320: e3ad 86be 11a4 31bd 023c 333e ad65 f2bd
00000330: 42a1 0c3d 030c b7bd 894e 4a3e 8cac a93d
00000340: 73f8 19bd 147a 863e 0ae6 143c de15 ba3e
00000350: 3431 be3e 611a 87bd 63dd 1d3e 7a02 0b3d
00000360: d0d6 05bd 4d18 8bbe 4b9a 233b 85f4 253d
00000370: cfde 18bd ec22 c03e 0a0a 143e b036 403e
00000380: 0a0d d03d a2ac be3d ce9e 94bd a16d 953d
00000390: 522b 18bd a7f8 da3c 70b2 3a3e b87a a23e
000003a0: f814 163e 41d5 1bbc e00e 77be ad4a 87be
000003b0: 5b75 4e3c ba08 f4bd c65c a9be 9344 cbbd
000003c0: bae4 06be 3df4 48be 1f23 b2bd fa06 893c
000003d0: f0be 81bd 1474 87bd ff87 2dbe 2b2f 173d
000003e0: bf18 873e 8834 5abd 4417 a9bc 038e 413e
000003f0: 529b 9dbd 48ea e53d 5c98 f5bd 3f42 fe3d

layer1.1.conv1.bias f4 [7]
0.05566326 -0.038272273 0.40801436 -0.02929784 -0.065535605 0.38333377 0.63833624
00000000: 29ff 633d 63c3 1cbd 42e7 d03e 0602 f0bc
00000010: 8837 86bd 5344 c43e 016a 233f

layer1.1.bn1.weight f4 [7]
0.68533415 0.96990013 0.8514923 0.98113 1.1773766 1.0526198 1.1437385
00000000: 0f72 2f3f 604b 783f 66fb 593f 562b 7b3f
00000010: 47b4 963f 3fbc 863f 0666 923f

layer1.1.bn1.bias f4 [7]
0.305461 -0.2533491 -0.32033747 -0.104378246 -0.019455222 0.099631764 0.13189854
00000000: 6265 9c3e f9b6 81be 4603 a4be 43c4 d5bd
00000010: 8f60 9fbc bd0b cc3d 6910 073e

layer1.1.bn1.running_mean f4 [7]
4.031588 -2.969717 -2.5724657 0.921057 -1.2847449 0.06325801 2.0033643
00000000: c502 8140 d80f 3ec0 47a3 24c0 64ca 6b3f
00000010: 8572 a4bf 6a8d 813d 1f37 0040

layer1.1.bn1.running_var f4 [7]
5.497647 1.942563 4.1687913 3.116338 4.151672 2.8000689 4.145053
00000000: b9ec af40 e8a5 f83f bd66 8540 1572 4740
00000010: 7fda 8440 5434 3340 46a4 8440

layer1.1.conv2.weight f4 [7, 7, 3, 3]
0.024911014 -0.05825393 0.024611928 0.08802037 -0.091055244 0.1426661 -0.09203273 0.18200539
0.054903626 0.07251586 -0.18217492 0.03675215 -0.14929546 -0.37071523 0.069390826 -0.20854259
-0.124215856 0.25272217 -0.12216848 -0.22860815 0.33446643 -0.15254743 0.015143891 0.3828238
0.027581261 -0.03733718 0.1644131 -0.087318 -0.044416685 0.11314683 0.12780534 -0.036176614
0.098509744 0.097523145 -0.16243672 -0.011469018 -0.12765022 -0.06967917 0.14930673 -0.0012158924
0.04444273 -0.069091745 0.11007592 0.07105833 -0.09753146 0.31199372 0.2131973 0.3478174
0.04470422 -0.17567194 0.0049142973 0.07391419 0.09390553 -0.2729279 0.03439036 -0.15904506
-0.25832546 0.073992856 -0.18687743 -0.31764454 0.1797135 -0.119989544 -0.16286673 0.13952728
-0.014110823 0.039788738 0.051853977 -0.005223009 0.08659126 -0.16150083 0.06836184 0.04136072
0.018947061 -0.13390595 -0.4469035 0.010397442 -0.26390067 -0.85243 0.37291962 -0.034323964
-0.16282044 0.27723572 -0.18613175 0.0015305819 -0.25335333 -0.30942252 -0.23831467 0.30653858
-0.030427808 -0.05112286 0.28087726 0.24637298 0.173426 0.03803132 0.16228452 0.01660962
0.015382741 0.004676168 0.051748484 0.23474021 -0.17127208 0.034581054 -0.19567834 -0.025901137
0.1744618 -0.020115534 0.09414579 -0.35801035 0.070187435 0.11772318 0.028020933 -0.026157068
-0.099204205 0.059999283 0.04222842 0.14176492 0.103368685 0.123652935 0.38760373 0.25223172
-0.1256529 0.23321444 -0.21118702 0.11931836 0.014190478 -0.04469017 0.06448629 -0.14808817
-0.052894406 -0.34058136 -0.13978834 -0.24664229 -0.2837378 -0.21988127 -0.16205803 0.19771191
0.032309726 -0.23393928 0.21109356 -0.06196232 -0.29119906 0.009714796 -0.31351256 -0.029926201
0.11215964 0.08676877 -0.08637589 -0.07871683 -0.29074082 -0.013225951 9.0388385e-06 -0.17610243
0.005514027 -0.123263426 -0.062393285 -0.09867709 -0.036008097 0.19509043 0.11403415 0.192735
0.120874666 -0.055059534 -0.27398154 -0.06276264 -0.06262013 -0.3908478 -0.58202463 -0.14677477
-0.2724265 -0.29410383 -0.22247174 0.18348 0.09677972 -0.01739862 0.28092182 -0.10467684
-0.0888132 -0.0669611 0.047312703 -0.08815528 -0.019951584 -0.17191051 0.02070496 -0.0725844
-0.12277879 0.012724394 0.06952152 0.10627219 -0.07610669 -0.2021366 -0.0045693805 0.11840176
0.013249485 0.15725997 0.18968563 -0.15251976 0.10011721 0.16031015 0.038031913 -0.11303686
-0.088824056 0.23953377 0.1436176 0.087137796 0.07078754 0.10910136 0.33546638 0.03445018
-0.038657885 -0.009831989 -0.08476035 -0.097687036 -0.12090052 0.11993416 0.14757721 -0.26741433
0.049405545 0.022945777 -0.11256902 -0.14941396 -0.15919013 0.0014758246 -0.3732756 -0.23130052
0.139384 -0.059687663 -0.059727576 0.16309996 0.034785632 0.22871289 0.1615743 -0.32113966
-0.275781 0.30864865 0.122059725 -0.13175005 -0.056229047 -0.1805656 -0.16645516 -0.03848632
0.23447579 0.19110538 -0.05427622 -0.16420355 -0.13559674 -0.02540413 -0.34649953 -0.19640538
-0.041421533 -0.25574556 -0.19696753 -0.19197384 0.09435518 0.08482263 0.16937616 0.17056866
00000000: 2f12 cc3c ac9b 6ebd f49e c93c 0644 b43d
00000010: 2c7b babd 1017 123e a87b bcbd 9f5f 3a3e
00000020: a0e2 603d 3283 943d 108c 3abe 6c89 163d
00000030: e9e0 18be 63ce bdbe c71c 8e3d 308c 55be
00000040: e264 febd cd64 813e 7833 fabd 4118 6abe
00000050: 2f3f ab3e 6535 1cbe 151e 783c 7b01 c43e
00000060: 19f2 e13c dfee 18bd e85b 283e c8d3 b2bd
00000070: 45ee 35bd 86b9 e73d 67df 023e ee2d 14bd
00000080: 7abf c93d 37ba c73d d055 26be 8ce8 3bbc
00000090: bdb6 02be f4b3 8ebd dde3 183e 945e 9fba
000000a0: 9409 363d f97f 8dbd 7c6f e13d 0887 913d
000000b0: 93be c7bd a4bd 9f3e 6550 5a3e 1f15 b23e
000000c0: c61b 373d 58e3 33be 1d08 a13b 5360 973d
000000d0: 8b51 c03d 35bd 8bbe e8dc 0c3d b5dc 22be
000000e0: 3c43 84be 9189 973d cc5c 3fbe 4ea2 a2be
000000f0: d106 383e 14bd f5bd 89c6 26be 3de0 0e3e
00000100: 1531 67bc 84f9 223d d664 543d c625 abbb
00000110: c256 b13d 7960 25be 4b01 8c3d dc69 293d
00000120: de36 9b3c a41e 09be 89d0 e4be 085a 2a3c
00000130: fd1d 87be da38 5abf 52ef be3e 4997 0cbd
00000140: 67ba 26be d7f1 8d3e 5299 3ebe ce9d c83a
00000150: 87b7 81be a16c 9ebe c308 74be a0f2 9c3e
00000160: bd43 f9bc 3466 51bd 25cf 8f3e 3349 7c3e
00000170: 9696 313e bbc6 1b3d ea2d 263e e610 883c
00000180: e407 7c3c 8a3a 993b 38f6 533d bd5f 703e
00000190: f361 2fbe dda4 0d3d e75f 48be 9f2e d4bc
000001a0: 1da6 323e 55c9 a4bc 82cf c03d 224d b7be
000001b0: 6ebe 8f3d da18 f13d 288c e53c 5947 d6bc
000001c0: 932b cbbd cfc1 753d b5f7 2c3d d32a 113e
000001d0: f6b2 d33d c03d fd3d ff73 c63e 8424 813e
000001e0: 27ab 00be c4cf 6e3e 6941 58be 2f5d f43d
000001f0: 2e7f 683c 0a0d 37bd 6311 843d 6da4 17be
00000200: cea7 58bd ae60 aebe ad24 0fbe cc8f 7cbe
00000210: 1546 91be 8e28 61be 8af2 25be fe74 4a3e
00000220: 3457 043d c78d 6fbe e928 583e 34cc 7dbd
00000230: 0b18 95be cf2a 1f3c b884 a0be cb27 f5bc
00000240: f4b3 e53d d3b3 b13d d8e5 b0bd 4a36 a1bd
00000250: fbdb 94be a9b1 58bc 84a5 1737 3254 34be
00000260: 03af b43b 8971 fcbd 1a90 7fbd 3717 cabd
00000270: 3a7d 13bd c9c5 473e bd8a e93d 535c 453e
00000280: 238d f73d 1b86 61bd 4f47 8cbe b389 80bd
00000290: fc3e 80bd 341d c8be 91ff 14bf 204c 16be
000002a0: 7c7b 8bbe c794 96be a2cf 63be 2ee2 3b3e
000002b0: 7234 c63d 8d87 8ebc fcd4 8f3e d060 d6bd
000002c0: b2e3 b5bd e722 89bd f7ca 413d c18a b4bd
000002d0: 8171 a3bc 4f09 30be 739d a93c 21a7 94bd
000002e0: 7273 fbbd fa79 503c 4c61 8e3d 3ca5 d93d
000002f0: d3dd 9bbd e6fc 4ebe beba 95bb 9f7c f23d
00000300: 5e14 593c c208 213e f33c 423e 242e 1cbe
00000310: 400a cd3d 5828 243e 5ac7 1b3d df7f e7bd
00000320: 63e9 b5bd 5748 753e 7e10 133e 4d75 b23d
00000330: 0ff9 903d 8970 df3d 40c2 ab3e a21b 0d3d
00000340: bb57 1ebd 5a16 21bc d696 adbd 2410 c8bd
00000350: b19a f7bd 0aa0 f53d 7b1e 173e 88ea 88be
00000360: 785d 4a3d c8f8 bb3c 968a e6bd f9ff 18be
00000370: bd02 23be 7570 c13a fb1d bfbe 0bda 6cbe
00000380: aeba 0e3e 0d7b 74bd e7a4 74bd ad03 273e
00000390: 617b 0e3d b633 6a3e bc73 253e 6b6c a4be
000003a0: 2b33 8dbe 3207 9e3e 73fa f93d 7ce9 06be
000003b0: 6e50 66bd 30e6 38be 3973 2abe d5a3 1dbd
000003c0: 6c1a 703e 21b1 433e be50 5ebd fa24 28be
000003d0: dfd9 0abe 521c d0bc 6368 b1be 7e1e 49be
000003e0: a0a9 29bd 15f1 82be dbb1 49be ca94 44be
000003f0: 4a3d c13d 7db7 ad3d f270 2d3e 8da9 2e3e

layer1.1.conv2.bias f4 [7]
0.020438954 -0.10860991 0.06877277 0.19453464 0.12460998 -0.47825277 0.14151828
00000000: 986f a73c df6e debd bdd8 8c3d 1734 473e
00000010: 8433 ff3d 8cdd f4be 2bea 103e

layer1.1.bn2.weight f4 [7]
0.70368576 0.7041655 1.0219297 1.0966475 0.8745841 0.924449 0.98567027
00000000: c024 343f 3144 343f 98ce 823f f25e 8c3f
00000010: bee4 5f3f b1a8 6c3f e354 7c3f

layer1.1.bn2.bias f4 [7]
-0.11278075 0.26505625 0.061315563 -0.11877591 0.19592512 -0.0003200778 0.17812367
00000000: 98f9 e6bd 74b5 873e 0726 7b3d c940 f3bd
00000010: 98a0 483e 1dd0 a7b9 0d66 363e

layer1.1.bn2.running_mean f4 [7]
-0.041671373 0.35753703 -1.515772 -0.41610217 1.2513272 -0.36715266 1.673493
00000000: 9aaf 2abd 180f b73e d104 c2bf 580b d5be
00000010: 7d2b a03f 6ffb bbbe 0535 d63f

layer1.1.bn2.running_var f4 [7]
0.8387837 1.5132627 1.554734 1.285304 1.1679524 0.773395 1.5066029
00000000: 87ba 563f 98b2 c13f 8601 c73f d784 a43f
00000010: 777f 953f 37fd 453f 5dd8 c03f

layer2.0.conv1.weight f4 [9, 7, 3, 3]
-0.21977751 0.39056343 -0.19145064 -0.17931536 0.12408082 -0.093947016 -0.093427666 -0.27897203
0.072204925 0.003463361 0.014304302 0.27340677 -0.23595867 -0.10658039 0.2150997 -0.48732716
-0.04108945 0.34733582 -0.057027824 0.055874433 0.07679887 -0.21837822 -0.09973595 0.06231498
-0.21886823 -0.022767227 0.093187824 0.004740139 -0.020556873 0.11629287 0.23880312 0.078419864
0.17320468 0.06436535 0.0017109384 0.09871226 -0.07688101 0.20287874 -0.015572613 -0.18899395
-0.07341476 0.010722023 -0.14440203 -0.03531733 -0.041602697 -0.13611107 -0.11081289 -0.053713042
-0.21895114 -0.19492745 -0.14576502 -0.08199661 -0.19765113 0.011735628 -0.054454375 -0.16095077
-0.08928949 -0.12941927 -0.15479197 -0.10066219 -0.14288726 0.13603282 0.23770656 0.24380863
-0.04182603 -0.06303329 0.018629251 -0.062032253 0.0722903 0.16257982 -0.026295023 0.14511985
0.009553494 -0.26051098 0.043510247 -0.2848309 -0.26290792 -0.11895477 -0.18644372 0.0619177
0.1527989 -0.42472014 -0.18652357 -0.019951861 -0.19577919 -0.20030469 0.021671854 -0.03596314
-0.17417069 0.036947303 0.047361404 -0.11009993 0.052335955 0.06530092 0.060062587 0.039030816
0.0095328055 -0.059168834 -0.24482657 -0.30822682 0.013393497 -0.004618193 0.09768087 0.2024763
0.08066382 -0.033420414 0.13570714 0.29526344 -0.005956674 0.06495005 -0.10819576 0.04145139
0.064954266 0.056351565 0.19489358 0.22643733 0.13938096 0.0125905685 -0.25452295 -0.24931733
-0.16150889 -0.39685115 -0.22561575 -0.03676835 -0.044259764 -0.17494301 -0.039913073 -0.12594981
0.009035139 0.22811651 0.1197464 0.024380375 0.085860275 0.04095193 0.12211396 0.06255621
0.022943497 -0.00599413 0.25153902 0.15073827 0.100428805 0.2793246 0.12954159 0.2245439
-0.12662451 -0.059246555 0.0630577 0.04712451 0.333231 0.19042934 0.09221731 0.10322096
0.07350169 0.02026789 0.043175604 0.079580076 -0.01994601 -0.010958819 -0.011649562 -0.019885134
0.20928293 0.24464011 -0.0727109 -0.091454655 -0.034439404 -0.033802032 0.013348462 0.014356911
0.18543692 0.03915582 0.008195045 -0.25998965 0.080338635 -0.100302726 0.04369643 -0.03440639
0.22426963 -0.21420564 0.07873453 0.21224454 0.15387508 -0.050947085 -0.01307961 0.21365184
0.17075375 0.21823587 0.074149 0.106613904 0.0889321 0.16798799 0.16920117 -0.15962063
0.010766173 -0.15668683 -0.25195894 0.106298864 -0.15753402 0.23645432 -0.3518355 -0.038380597
-0.033075545 -0.3728656 -0.06819127 -0.002006194 -0.1758557 -0.13202113 -0.015482614 0.23669766
0.2825982 0.055118594 -0.08095207 -0.043780457 0.28465626 -0.4115748 -0.0715057 0.062388346
-0.19154175 0.13779236 0.25226593 -0.022291236 0.046410006 0.022886118 -0.1294971 -0.36258575
-0.1333051 0.16783264 0.13076884 -0.14142694 0.030312968 0.14628175 -0.07677847 -0.015688084
-0.04969079 -0.14796157 0.009463763 0.057718143 -0.092993625 -0.1598799 -0.19801655 -0.111791514
-0.44493 -0.16991796 0.009500685 -0.11436789 0.082598515 0.19927908 0.07898972 0.127498
0.19622779 -0.112863086 0.069789656 0.28106683 0.08819395 -0.033823844 -0.20908202 0.13299045
00000000: 5b0d 61be eef7 c73e a30b 44be 729e 37be
00000010: 161e fe3d 4b67 c0bd 0157 bfbd 6cd5 8ebe
00000020: 2de0 933d 8ef9 623b 975c 6a3c f9fb 8b3e
00000030: 269f 71be d246 dabd 1943 5c3e f282 f9be
00000040: 694d 28bd 00d6 b13e 0296 69bd 97dc 643d
00000050: ba48 9d3d 8a9e 5fbe 5d42 ccbd fe3d 7f3d
00000060: fe1e 60be 5682 babc 42d9 be3d 2b53 9b3b
00000070: e366 a8bc f52a ee3d ce88 743e 989a a03d
00000080: 915c 313e fbd1 833d 9141 e03a a729 ca3d
00000090: ca73 9dbd 72bf 4f3e 4624 7fbc a187 41be
000000a0: 7a5a 96bd 6dab 2f3c 20de 13be e8a8 10bd
000000b0: 9767 2abd b360 0bbe def1 e2bd 3502 5cbd
000000c0: ba34 60be 109b 47be 6d43 15be d7ed a7bd
000000d0: 0f65 4abe cb46 403c 8d0b 5fbd 47d0 24be
000000e0: 68dd b6bd 7c86 04be c981 1ebe fa27 cebd
000000f0: 0a51 12be 304c 0b3e 5969 733e f8a8 793e
00000100: c551 2bbd 9917 81bd 5f9c 983c 8815 7ebd
00000110: f00c 943d 537b 263e a968 d7bc 4c9a 143e
00000120: 4286 1c3c b261 85be cd37 323d 5bd5 91be
00000130: de9b 86be 8f9e f3bd 1aeb 3ebe 6a9d 7d3d
00000140: 5177 1c3e eb74 d9be 0900 3fbe 1672 a3bc
00000150: 577a 48be ac1c 4dbe 2c89 b13c 164e 13bd
00000160: cd59 32be 0e56 173d 08fe 413d 127c e1bd
00000170: 3a5e 563d 7dbc 853d 3004 763d c7de 1f3d
00000180: 7c2f 1c3c 055b 72bd d1b3 7abe e8cf 9dbe
00000190: 6670 5b3c 3654 97bb e80c c83d f255 4f3e
000001a0: 1333 a53d d8e3 08bd d0f6 0a3e c52c 973e
000001b0: 3430 c3bb 8804 853d bd95 ddbd efc8 293d
000001c0: be06 853d e6d0 663d 2f92 473e 30df 673e
000001d0: e2b9 0e3e ac48 4e3c d550 82be 0b4d 7fbe
000001e0: 9662 25be 1330 cbbe d107 67be 699a 16bd
000001f0: ba49 35bd 4324 33be e47b 23bd fdf8 00be
00000200: 1f08 143c 6097 693e 9a3d f53d 5ab9 c73c
00000210: 83d7 af3d 36bd 273d e216 fa3d 781d 803d
00000220: 00f4 bb3c 686a c4bb b9c9 803e 225b 1a3e
00000230: 9ead cd3d a203 8f3e 8da6 043e d6ee 653e
00000240: dba9 01be 84ac 72bd 6524 813d a105 413d
00000250: 419d aa3e e9ff 423e 6edc bc3d 8365 d33d
00000260: 0e88 963d d908 a63c e7d8 303d e1fa a23d
00000270: d165 a3bc 9e8c 33bc cedd 3ebc 26e6 a2bc
00000280: 444e 563e f082 7a3e 74e9 94bd 944c bbbd
00000290: 5510 0dbd 0074 0abd 82b3 5a3c 4039 6b3c
000002a0: 2de3 3d3e da61 203d 8344 063c 5d1d 85be
000002b0: 9588 a43d 846b cdbd 07fb 323d b7ed 0cbd
000002c0: f0a6 653e b958 5bbe 923f a13d a256 593e
000002d0: 6e91 1d3e e4ad 50bd dc4b 56bc 8cc7 5a3e
000002e0: 12da 2e3e 3979 5f3e 6edb 973d 6458 da3d
000002f0: 0822 b63d 0b05 2c3e 1243 2d3e 9773 23be
00000300: 9a64 303c 8372 20be c300 81be 38b3 d93d
00000310: 9950 21be 1521 723e c823 b4be f934 1dbd
00000320: 397a 07bd 3de8 bebe dda7 8bbd 5a7a 03bb
00000330: 8413 34be 8c30 07be caaa 7dbc df60 723e
00000340: b6b0 903e 09c4 613d 33ca a5bd 2353 33bd
00000350: 77be 913e efb9 d2be 9571 92bd ec8a 7f3d
00000360: 8523 44be 7119 0d3e 0029 813e 1c9c b6bc
00000370: 6b18 3e3d ab7b bb3c e39a 04be d7a4 b9be
00000380: 2281 08be 52dc 2b3e 44e8 053e 39d2 10be
00000390: e752 f83c e2ca 153e 083e 9dbd 4c84 80bc
000003a0: 9288 4bbd 3d83 17be e60d 1b3c dc69 6c3d
000003b0: 7173 bebd 8eb7 23be dac4 4abe f3f2 e4bd
000003c0: ddcd e3be f9fe 2dbe c3a8 1b3c b639 eabd
000003d0: 6929 a93d d10f 4c3e 5dc5 a13d d68e 023e
000003e0: f0ef 483e c324 e7bd e1ed 8e3d fee7 8f3e
000003f0: 089f b43d df8a 0abd 9919 56be a62e 083e

layer2.0.conv1.bias f4 [9]
0.060554773 -0.04785701 -0.013679829 0.13007459 0.019471778 -0.18969443 0.11750458 0.016447015
-0.058394484
00000000: 4808 783d b605 44bd 5d21 60bc 4632 053e
00000010: 4783 9f3c 423f 42be 3ea6 f03d e4bb 863c
00000020: 0e2f 6fbd

layer2.0.bn1.weight f4 [9]
1.0753667 0.74311674 0.75662667 0.96859604 1.0925674 1.0396589 1.070542 1.1455113
1.1161426
00000000: 9ea5 893f e63c 3e3f 49b2 413f e9f5 773f
00000010: 40d9 8b3f 8b13 853f 8507 893f 1da0 923f
00000020: c3dd 8e3f

layer2.0.bn1.bias f4 [9]
-0.15779987 0.05046299 0.09320717 -0.25031638 -0.14077747 -0.11388175 -0.028976448 -0.36000904
-0.07119049
00000000: 4a96 21be 48b2 4e3d 67e3 be3d 7829 80be
00000010: f827 10be d63a e9bd 0460 edbc 1b53 b8be
00000020: 52cc 91bd

layer2.0.bn1.running_mean f4 [9]
-3.0539458 -4.069516 5.1953607 -1.5409359 -0.89454365 -1.6042136 -2.2452881 -3.1336927
-0.4533374
00000000: d973 43c0 7a39 82c0 6540 a640 633d c5bf
00000010: d000 65bf df56 cdbf cdb2 0fc0 6c8e 48c0
00000020: d71b e8be

layer2.0.bn1.running_var f4 [9]
7.096923 7.2353096 5.5492764 6.4191933 8.0703335 4.7513375 8.815217 9.059066
7.196446
00000000: fe19 e340 a887 e740 ac93 b140 086a cd40
00000010: 1620 0141 f50a 9840 210b 0d41 eff1 1041
00000020: 4949 e640

layer2.0.conv2.weight f4 [9, 9, 3, 3]
-0.22124715 -0.053272173 -0.011790318 0.0030964485 -0.019689176 0.05204669 -0.05696645 0.004309404
0.14715135 0.18872166 0.042999346 0.046873692 0.17674741 -0.008804392 0.022636121 0.18355423
-0.07313345 -0.22782564 0.19314982 0.11235063 0.025532197 -0.10618865 -0.07214691 0.06531154
-0.27677128 -0.13516809 -0.07947387 0.061005984 -0.10581589 -0.1693703 0.14821701 0.02599183
0.06731738 0.078634284 0.11602161 0.0016980493 0.08403335 0.1284497 0.050030533 -0.055667028
-0.19903001 -0.27723086 -0.10231555 -0.29932854 -0.33955425 0.04835618 0.04728736 0.014260273
0.008360313 -0.13392983 0.0012385104 -0.027512474 -0.22191775 -0.251795 -0.074276075 0.038024798
0.01863232 -0.17364319 -0.081112206 0.05267491 -0.0020561386 -0.17758915 -0.20403717 0.010046278
0.070375085 -0.019401822 -0.052788436 -0.19953415 -0.06076811 -0.12979275 -0.03471524 -0.074243605
-0.16441312 -0.095797196 -0.2059293 -0.16511893 0.17450514 -0.020465989 -0.26050562 -0.28411856
-0.3389666 -0.29772523 -0.03636081 0.14376432 -0.19232948 0.11070355 0.06431659 -0.20384204
0.020567311 0.16332051 0.13776216 0.28083453 0.10639206 0.05737537 -0.027952064 0.11519974
-0.064384826 0.041231763 0.07730767 -0.03243011 -0.093522474 -0.039046887 -0.0352274 -0.036469806
-0.04543841 0.19091265 0.20593847 -0.00036281708 -0.13854338 0.15706807 0.059019946 -0.019303624
0.1666298 -0.06588439 -0.009484796 0.006944892 0.08780586 -0.31815314 -0.24419807 -0.12469035
-0.16387914 -0.15737076 -0.050509427 0.26054287 -0.27533805 0.0055339793 0.162641 0.0033293734
0.13864931 0.1365447 -0.10398936 0.107180275 -0.03218232 -0.23645127 -0.12208336 -0.20738736
-0.29102686 0.17540833 0.18278688 0.4043734 0.42032832 0.19823962 0.4452762 0.6806317
0.21300071 0.059312917 -0.0115538705 0.24750921 0.0301452 0.030856885 0.01840338 -0.030742526
-0.12297636 -0.124509 -0.26918265 -0.0875212 0.08542381 -0.05172072 0.065417565 0.1543011
-0.049917996 -0.04747074 0.114487894 -0.00057785463 0.09716024 -0.055188682 -0.1031586 0.27168497
-0.3181904 -0.011079035 0.104346275 -0.1242676 0.08859591 -0.064124234 0.04684569 -0.013312628
0.01542901 -0.117023915 -0.23433717 0.22305064 -0.055772744 -0.07978136 -0.19978888 -0.08466813
0.034730677 -0.17396925 0.15179434 -0.14905179 -0.19833533 0.20725538 -0.21129957 -0.1416781
-0.05216329 -0.30384564 -0.14523473 -0.059767686 -0.0715038 0.062319916 -0.18667275 -0.31913453
-0.222569 -0.09564273 -0.16624771 -0.13850021 0.057823308 -0.0603887 0.018676866 0.045856867
-0.22947718 -0.008180246 -0.16541176 -0.32893628 -0.13146375 -0.16968939 -0.062319808 -0.08161051
0.015850946 0.11450974 -0.18114637 -0.074880585 0.05584993 -0.22200859 0.080813736 -0.06935257
-0.033367813 0.558567 0.025254639 -0.17784005 0.12954618 -0.34691313 -0.009467238 0.053917054
-0.056428947 0.22132848 0.20485915 0.2675573 0.15169582 0.0050563747 0.000599144 0.059689563
-0.31865156 -0.38670543 0.05964907 -0.16941999 0.09915202 0.08759277 -0.08569874 0.07441017
0.029812088 0.009782625 -0.16967148 -0.028508715 -0.26388896 -0.10106795 -0.19465043 -0.03644381
00000000: 9d8e 62be ec33 5abd 2e2c 41bc c9ed 4a3b
00000010: 324b a1bc e92e 553d a755 69bd e735 8d3b
00000020: d8ae 163e 4040 413e 1520 303d a1fe 3f3d
00000030: 46fd 343e 4c40 10bc 636f b93c a4f5 3b3e
00000040: fdc6 95bd 204b 69be 11c9 453e 1618 e63d
00000050: e628 d13c 6f79 d9bd c2c1 93bd 0fc2 853d
00000060: f7b4 8dbe 8169 0abe 32c3 a2bd 69e1 793d
00000070: 00b6 d8bd 686f 2dbe 33c6 173e d1ec d43c
00000080: b2dd 893d 030b a13d bd9c ed3d 1491 de3a
00000090: ad19 ac3d 5188 033e d1ec 4c3d 1c03 64bd
000000a0: 86ce 4bbe 34f1 8dbe d18a d1bd 9741 99be
000000b0: 0eda adbe 2111 463d 64b0 413d eca3 693c
000000c0: b2f9 083c e724 09be 8355 a23a d761 e1bc
000000d0: 683e 63be 46eb 80be 0e1e 98bd e4bf 1b3d
000000e0: cfa2 983c 85cf 31be 281e a6bd a5c1 573d
000000f0: 48c0 06bb eed9 35be 1fef 50be 2599 243c
00000100: d020 903d 92f0 9ebc b038 58bd ae52 4cbe
00000110: fbe7 78bd 64e8 04be 9131 0ebd 080d 98bd
00000120: ea5b 28be 5231 c4bd 21df 52be f014 29be
00000130: 7ab1 323e 4aa8 a7bc fe60 85be fd77 91be
00000140: 088d adbe 716f 98be 13ef 14bd f436 133e
00000150: 05f2 44be 8bb8 e23d 6bb8 833d f8bb 50be
00000160: c77c a83c 7e3d 273e 8611 0d3e 8bc9 8f3e
00000170: 15e4 d93d 7002 6b3d bafb e4bc d7ed eb3d
00000180: 31dc 83bd a3e2 283d 7c53 9e3d 6fd5 04bd
00000190: b688 bfbd a1ef 1fbd 9b4a 10bd 5d61 15bd
000001a0: a01d 3abd 9b7e 433e 89e1 523e 7c38 beb9
000001b0: 51de 0dbe 74d6 203e e6be 713d a222 9ebc
000001c0: 01a1 2a3e 65ee 86bd 1e66 1bbc fa91 e33b
000001d0: 8fd3 b33d f8e4 a2be 0f0f 7abe a75d ffbd
000001e0: efcf 27be cd25 21be f9e2 4ebd e065 853e
000001f0: 1cf9 8cbe 6256 b53b 5d8b 263e 9e31 5a3b
00000200: 16fa 0d3e 60d2 0b3e 60f8 d4bd 5581 db3d
00000210: 9cd1 03bd 4820 72be d706 fabd 5a5d 54be
00000220: 7901 95be 3e9e 333e 7c2c 3b3e 080a cf3e
00000230: 4635 d73e 54ff 4a3e 3efb e33e e13d 2e3f
00000240: dc1c 5a3e 1af2 723d 724c 3dbc 0e73 7d3e
00000250: 11f3 f63c 94c7 fc3c afc2 963c c0d7 fbbc
00000260: 08db fbbd 93fe febd 4fd2 89be 513e b3bd
00000270: aef2 ae3d 1bd9 53bd a5f9 853d 1c01 1e3e
00000280: d076 4cbd ae70 42bd a178 ea3d 2b7b 17ba
00000290: f3fb c63d 870d 62bd d144 d3bd 4b1a 8b3e
000002a0: dae9 a2be d784 35bc 80b3 d53d 0380 febd
000002b0: c671 b53d 9153 83bd 44e1 3f3d 351d 5abc
000002c0: f5c9 7c3c 3caa efbd 15f6 6fbe 6367 643e
000002d0: f671 64bd 6964 a3bd 7595 4cbe 7c66 adbd
000002e0: c141 0e3d ff24 32be fa6f 1b3e 08a1 18be
000002f0: 6b18 4bbe c13a 543e ea5e 58be 1014 11be
00000300: 2da9 55bd a891 9bbe 6ab8 14be f6ce 74bd
00000310: 9670 92bd 2b43 7f3d 2427 3fbe 9a65 a3be
00000320: 21e9 63be 56e0 c3bd d73c 2abe 00d3 0dbe
00000330: 22d8 6c3d 245a 77bd 3a00 993c 69d4 3b3d
00000340: 11fc 6abe 7006 06bc b361 29be 566a a8be
00000350: 6f9e 06be 0ec3 2dbe 0e43 7fbd 6923 a7bd
00000360: d8d9 813c 1584 ea3d 6f7e 39be fe5a 99bd
00000370: e5c2 643d 3856 63be ac81 a53d b808 8ebd
00000380: b0ac 08bd 3ffe 0e3f d1e2 ce3c b41b 36be
00000390: c1a7 043e 999e b1be 791c 1bbc 21d8 5c3d
000003a0: 0a22 67bd efa3 623e 99c6 513e 45fd 883e
000003b0: 2656 1b3e f2af a53b e00f 1d3a 0b7d 743d
000003c0: 4c26 a3be 41fe c5be 9552 743d 6f7c 2dbe
000003d0: 3710 cb3d d763 b33d d282 afbd 5c64 983d
000003e0: 7b38 f43c 4e47 203c 5cbe 2dbe 1c8b e9bc
000003f0: 741c 87be b7fc cebd 7152 47be 1b46 15bd

layer2.0.conv2.bias f4 [9]
0.4769728 0.035887167 -0.2626435 -0.08384086 0.030968368 -0.073881775 -0.19618954 0.068735726
-0.19037652
00000000: c735 f43e 6cfe 123d 3579 86be c2b4 abbd
00000010: 60b1 fd3c 544f 97bd e9e5 48be 51c5 8c3d
00000020: 10f2 42be

layer2.0.bn2.weight f4 [9]
1.0260712 1.1052941 1.1321241 1.0277244 1.2062907 1.0737407 1.1271626 1.2938722
1.0367842
00000000: 4d56 833f 477a 8d3f 71e9 903f 798c 833f
00000010: bc67 9a3f 5670 893f dd46 903f 9b9d a53f
00000020: 58b5 843f

layer2.0.bn2.bias f4 [9]
0.17403957 -0.15749434 0.07846413 0.067721575 0.08024997 0.025890652 0.038505796 0.17920744
0.17414849
00000000: 6e37 323e 3246 21be cdb1 a03d 9cb1 8a3d
00000010: 195a a43d a218 d43c 41b8 1d3d 2882 373e
00000020: fb53 323e

layer2.0.bn2.running_mean f4 [9]
-0.74566996 0.55214137 -1.4405344 -0.8101337 -1.1016477 -1.152465 0.31886265 -0.26827997
-1.2758988
00000000: 3ae4 3ebf 2359 0d3f 6e63 b8bf ec64 4fbf
00000010: cb02 8dbf f983 93bf f741 a33e fe5b 89be
00000020: a750 a3bf

layer2.0.bn2.running_var f4 [9]
0.69719046 1.0482193 0.8460895 0.9242911 0.92440957 1.1490641 0.9343643 1.0706755
0.7906696
00000000: 137b 323f 0d2c 863f 5299 583f 579e 6c3f
00000010: 1ba6 6c3f 8814 933f 8032 6f3f e50b 893f
00000020: 5369 4a3f

layer2.0.downsample.0.weight f4 [9, 7, 1, 1]
-0.2764157 0.22257274 -0.067259185 0.039062873 0.26481715 0.059054896 -0.31631386 0.22960538
-0.3711205 0.44665387 0.045622364 -0.31110886 0.20341991 0.21758294 0.71173257 0.410073
0.0114060845 0.20099741 0.17517905 -0.15232499 -0.08314695 -0.22313441 -0.34026855 0.17541943
-0.18229324 0.27507442 -0.30272004 -0.08186886 0.081655845 0.5001207 0.16758327 -0.042988785
0.22182746 0.11349583 -0.3312061 0.028308071 0.5314329 0.3238773 -0.35568887 -0.36657143
-0.05189835 0.1524035 0.1605233 0.14521848 -0.0046464643 0.5053266 -0.13947053 -0.16111347
0.026159456 0.32020894 -0.1159691 0.044707563 -0.13873626 0.30348375 0.24317545 -0.35557178
-0.07939383 -0.32921243 -0.070577554 0.0955625 -0.0965488 -0.5416056 -0.061917797
00000000: 5c86 8dbe 1cea 633e 2fbf 89bd 6400 203d
00000010: 1d96 873e 8ce3 713d e4f3 a1be ac1d 6b3e
00000020: 8203 bebe d1af e43e 84de 3a3d a949 9fbe
00000030: 4f4d 503e 10ce 5e3e 1b34 363f 17f5 d13e
00000040: 96e0 3a3c 44d2 4d3e 2362 333e 15fb 1bbe
00000050: f348 aabd 597d 64be ae37 aebe 27a1 333e
00000060: 14ab 3abe 8ed6 8c3e 1ffe 9abe dcaa a7bd
00000070: 2e3b a73d e907 003f f39a 2b3e 0215 30bd
00000080: bd26 633e 8070 e83d d993 a9be 54e6 e73c
00000090: fd0b 083f 3fd3 a53e da1c b6be 40af bbbe
000000a0: 5d93 54bd aa0f 1c3e 3860 243e 27b4 143e
000000b0: 5e41 98bb 165d 013f 5dd1 0ebe eefa 24be
000000c0: 5b4c d63c 6df2 a33e 3581 edbd 471f 373d
000000d0: e110 0ebe 3962 9b3e fc02 793e 810d b6be
000000e0: 3b99 a2bd 888e a8be f78a 90bd 46b6 c33d
000000f0: 61bb c5bd aaa6 0abf 849d 7dbd

layer2.0.downsample.0.bias f4 [9]
-0.047280133 -0.38338816 -0.22826004 0.010268657 0.37527117 0.46391723 0.5519925 0.016945641
-0.16483156
00000000: d0a8 41bd 744b c4be 00bd 69be de3d 283c
00000010: 8b23 c03e 8f86 ed3e 614f 0d3f 96d1 8a3c
00000020: 9bc9 28be
